…
Normalize(mean=tensor([0.4850, 0.4560, 0.4060]), std=tensor([0.2290, 0.2240, 0.2250]))
RandomErasing(p=0.25, mode=pixel, count=(1, 1))
---------------------------
reading from datapath /dev/shm/imagenet
Number of the class = 1000
Transform = 
Resize(size=329, interpolation=bicubic, max_size=None, antialias=True)
CenterCrop(size=(288, 288))
ToTensor()
Normalize(mean=(0.485, 0.456, 0.406), std=(0.229, 0.224, 0.225))
---------------------------
reading from datapath /dev/shm/imagenet
Number of the class = 1000
Sampler_train = <torch.utils.data.distributed.DistributedSampler object at 0x7fd735954310>
Mixup is activated!
Model = SPCNN(
  (first_conv): ConvX(
    (conv): Conv2d(3, 48, kernel_size=(3, 3), stride=(2, 2), padding=(1, 1), bias=False)
    (norm): BatchNorm2d(48, eps=1e-05, momentum=0.1, affine=True, track_running_stats=True)
    (act): Act(
      (act): GELU(approximate='none')
    )
  )
  (layer1): Sequential(
    (0): DownBlock(
      (mlp): Sequential(
        (0): ConvX(
          (conv): Conv2d(48, 192, kernel_size=(1, 1), stride=(1, 1), bias=False)
          (norm): BatchNorm2d(192, eps=1e-05, momentum=0.1, affine=True, track_running_stats=True)
          (act): Act(
            (act): GELU(approximate='none')
          )
        )
        (1): ConvX(
          (conv): Conv2d(192, 192, kernel_size=(3, 3), stride=(2, 2), padding=(1, 1), groups=192, bias=False)
          (norm): BatchNorm2d(192, eps=1e-05, momentum=0.1, affine=True, track_running_stats=True)
          (act): Act(
            (act): GELU(approximate='none')
          )
        )
        (2): ConvX(
          (conv): Conv2d(192, 96, kernel_size=(1, 1), stride=(1, 1), bias=False)
          (norm): BatchNorm2d(96, eps=1e-05, momentum=0.1, affine=True, track_running_stats=True)
          (act): Act()
        )
      )
      (skip): Sequential(
        (0): ConvX(
          (conv): Conv2d(48, 48, kernel_size=(3, 3), stride=(2, 2), padding=(1, 1), groups=48, bias=False)
          (norm): BatchNorm2d(48, eps=1e-05, momentum=0.1, affine=True, track_running_stats=True)
          (act): Act()
        )
        (1): ConvX(
          (conv): Conv2d(48, 96, kernel_size=(1, 1), stride=(1, 1), bias=False)
          (norm): BatchNorm2d(96, eps=1e-05, momentum=0.1, affine=True, track_running_stats=True)
          (act): Act()
        )
      )
      (drop_path): Identity()
    )
    (1): BottleNeck(
      (drop_path): DropPath(drop_prob=0.010)
      (ln): LayerNorm()
      (sblock_in): ConvX(
        (conv): Conv2d(96, 384, kernel_size=(1, 1), stride=(1, 1), bias=False)
        (norm): BatchNorm2d(384, eps=1e-05, momentum=0.1, affine=True, track_running_stats=True)
        (act): Act(
          (act): GELU(approximate='none')
        )
      )
      (sblock_dw): ConvX(
        (conv): Conv2d(192, 192, kernel_size=(3, 3), stride=(1, 1), padding=(1, 1), groups=192, bias=False)
        (norm): BatchNorm2d(192, eps=1e-05, momentum=0.1, affine=True, track_running_stats=True)
        (act): Act()
      )
      (sblock_proj): ConvX(
        (conv): Conv2d(192, 96, kernel_size=(1, 1), stride=(1, 1), bias=False)
        (norm): BatchNorm2d(96, eps=1e-05, momentum=0.1, affine=True, track_running_stats=True)
        (act): Act()
      )
      (mblock): Sequential(
        (0): ConvX(
          (conv): Conv2d(96, 96, kernel_size=(1, 1), stride=(1, 1), bias=False)
          (norm): BatchNorm2d(96, eps=1e-05, momentum=0.1, affine=True, track_running_stats=True)
          (act): Act(
            (act): GELU(approximate='none')
          )
        )
        (1): PyramidConvX(
          (branch_1): Sequential(
            (0): AvgPool2d(kernel_size=3, stride=1, padding=1)
            (1): ConvX(
              (conv): Conv2d(96, 96, kernel_size=(3, 3), stride=(1, 1), padding=(1, 1), groups=96, bias=False)
              (norm): BatchNorm2d(96, eps=1e-05, momentum=0.1, affine=True, track_running_stats=True)
              (act): Act()
            )
          )
          (branch_2): Sequential(
            (0): AvgPool2d(kernel_size=5, stride=2, padding=2)
            (1): ConvX(
              (conv): Conv2d(96, 96, kernel_size=(3, 3), stride=(1, 1), padding=(1, 1), groups=96, bias=False)
              (norm): BatchNorm2d(96, eps=1e-05, momentum=0.1, affine=True, track_running_stats=True)
              (act): Act()
            )
          )
          (branch_3): Sequential(
            (0): AvgPool2d(kernel_size=7, stride=3, padding=3)
            (1): ConvX(
              (conv): Conv2d(96, 96, kernel_size=(3, 3), stride=(1, 1), padding=(1, 1), groups=96, bias=False)
              (norm): BatchNorm2d(96, eps=1e-05, momentum=0.1, affine=True, track_running_stats=True)
              (act): Act()
            )
          )
          (act): Act(
            (act): GELU(approximate='none')
          )
        )
        (2): ConvX(
          (conv): Conv2d(96, 96, kernel_size=(1, 1), stride=(1, 1), bias=False)
          (norm): BatchNorm2d(96, eps=1e-05, momentum=0.1, affine=True, track_running_stats=True)
          (act): Act()
        )
      )
    )
    (2): BottleNeck(
      (drop_path): DropPath(drop_prob=0.020)
      (ln): LayerNorm()
      (sblock_in): ConvX(
        (conv): Conv2d(96, 384, kernel_size=(1, 1), stride=(1, 1), bias=False)
        (norm): BatchNorm2d(384, eps=1e-05, momentum=0.1, affine=True, track_running_stats=True)
        (act): Act(
          (act): GELU(approximate='none')
        )
      )
      (sblock_dw): ConvX(
        (conv): Conv2d(192, 192, kernel_size=(3, 3), stride=(1, 1), padding=(1, 1), groups=192, bias=False)
        (norm): BatchNorm2d(192, eps=1e-05, momentum=0.1, affine=True, track_running_stats=True)
        (act): Act()
      )
      (sblock_proj): ConvX(
        (conv): Conv2d(192, 96, kernel_size=(1, 1), stride=(1, 1), bias=False)
        (norm): BatchNorm2d(96, eps=1e-05, momentum=0.1, affine=True, track_running_stats=True)
        (act): Act()
      )
      (mblock): Sequential(
        (0): ConvX(
          (conv): Conv2d(96, 96, kernel_size=(1, 1), stride=(1, 1), bias=False)
          (norm): BatchNorm2d(96, eps=1e-05, momentum=0.1, affine=True, track_running_stats=True)
          (act): Act(
            (act): GELU(approximate='none')
          )
        )
        (1): PyramidConvX(
          (branch_1): Sequential(
            (0): AvgPool2d(kernel_size=3, stride=1, padding=1)
            (1): ConvX(
              (conv): Conv2d(96, 96, kernel_size=(3, 3), stride=(1, 1), padding=(1, 1), groups=96, bias=False)
              (norm): BatchNorm2d(96, eps=1e-05, momentum=0.1, affine=True, track_running_stats=True)
              (act): Act()
            )
          )
          (branch_2): Sequential(
            (0): AvgPool2d(kernel_size=5, stride=2, padding=2)
            (1): ConvX(
              (conv): Conv2d(96, 96, kernel_size=(3, 3), stride=(1, 1), padding=(1, 1), groups=96, bias=False)
              (norm): BatchNorm2d(96, eps=1e-05, momentum=0.1, affine=True, track_running_stats=True)
              (act): Act()
            )
          )
          (branch_3): Sequential(
            (0): AvgPool2d(kernel_size=7, stride=3, padding=3)
            (1): ConvX(
              (conv): Conv2d(96, 96, kernel_size=(3, 3), stride=(1, 1), padding=(1, 1), groups=96, bias=False)
              (norm): BatchNorm2d(96, eps=1e-05, momentum=0.1, affine=True, track_running_stats=True)
              (act): Act()
            )
          )
          (act): Act(
            (act): GELU(approximate='none')
          )
        )
        (2): ConvX(
          (conv): Conv2d(96, 96, kernel_size=(1, 1), stride=(1, 1), bias=False)
          (norm): BatchNorm2d(96, eps=1e-05, momentum=0.1, affine=True, track_running_stats=True)
          (act): Act()
        )
      )
    )
    (3): BottleNeck(
      (drop_path): DropPath(drop_prob=0.030)
      (ln): LayerNorm()
      (sblock_in): ConvX(
        (conv): Conv2d(96, 384, kernel_size=(1, 1), stride=(1, 1), bias=False)
        (norm): BatchNorm2d(384, eps=1e-05, momentum=0.1, affine=True, track_running_stats=True)
        (act): Act(
          (act): GELU(approximate='none')
        )
      )
      (sblock_dw): ConvX(
        (conv): Conv2d(192, 192, kernel_size=(3, 3), stride=(1, 1), padding=(1, 1), groups=192, bias=False)
        (norm): BatchNorm2d(192, eps=1e-05, momentum=0.1, affine=True, track_running_stats=True)
        (act): Act()
      )
      (sblock_proj): ConvX(
        (conv): Conv2d(192, 96, kernel_size=(1, 1), stride=(1, 1), bias=False)
        (norm): BatchNorm2d(96, eps=1e-05, momentum=0.1, affine=True, track_running_stats=True)
        (act): Act()
      )
      (mblock): Sequential(
        (0): ConvX(
          (conv): Conv2d(96, 96, kernel_size=(1, 1), stride=(1, 1), bias=False)
          (norm): BatchNorm2d(96, eps=1e-05, momentum=0.1, affine=True, track_running_stats=True)
          (act): Act(
            (act): GELU(approximate='none')
          )
        )
        (1): PyramidConvX(
          (branch_1): Sequential(
            (0): AvgPool2d(kernel_size=3, stride=1, padding=1)
            (1): ConvX(
              (conv): Conv2d(96, 96, kernel_size=(3, 3), stride=(1, 1), padding=(1, 1), groups=96, bias=False)
              (norm): BatchNorm2d(96, eps=1e-05, momentum=0.1, affine=True, track_running_stats=True)
              (act): Act()
            )
          )
          (branch_2): Sequential(
            (0): AvgPool2d(kernel_size=5, stride=2, padding=2)
            (1): ConvX(
              (conv): Conv2d(96, 96, kernel_size=(3, 3), stride=(1, 1), padding=(1, 1), groups=96, bias=False)
              (norm): BatchNorm2d(96, eps=1e-05, momentum=0.1, affine=True, track_running_stats=True)
              (act): Act()
            )
          )
          (branch_3): Sequential(
            (0): AvgPool2d(kernel_size=7, stride=3, padding=3)
            (1): ConvX(
              (conv): Conv2d(96, 96, kernel_size=(3, 3), stride=(1, 1), padding=(1, 1), groups=96, bias=False)
              (norm): BatchNorm2d(96, eps=1e-05, momentum=0.1, affine=True, track_running_stats=True)
              (act): Act()
            )
          )
          (act): Act(
            (act): GELU(approximate='none')
          )
        )
        (2): ConvX(
          (conv): Conv2d(96, 96, kernel_size=(1, 1), stride=(1, 1), bias=False)
          (norm): BatchNorm2d(96, eps=1e-05, momentum=0.1, affine=True, track_running_stats=True)
          (act): Act()
        )
      )
    )
    (4): BottleNeck(
      (drop_path): DropPath(drop_prob=0.040)
      (ln): LayerNorm()
      (sblock_in): ConvX(
        (conv): Conv2d(96, 384, kernel_size=(1, 1), stride=(1, 1), bias=False)
        (norm): BatchNorm2d(384, eps=1e-05, momentum=0.1, affine=True, track_running_stats=True)
        (act): Act(
          (act): GELU(approximate='none')
        )
      )
      (sblock_dw): ConvX(
        (conv): Conv2d(192, 192, kernel_size=(3, 3), stride=(1, 1), padding=(1, 1), groups=192, bias=False)
        (norm): BatchNorm2d(192, eps=1e-05, momentum=0.1, affine=True, track_running_stats=True)
        (act): Act()
      )
      (sblock_proj): ConvX(
        (conv): Conv2d(192, 96, kernel_size=(1, 1), stride=(1, 1), bias=False)
        (norm): BatchNorm2d(96, eps=1e-05, momentum=0.1, affine=True, track_running_stats=True)
        (act): Act()
      )
      (mblock): Sequential(
        (0): ConvX(
          (conv): Conv2d(96, 96, kernel_size=(1, 1), stride=(1, 1), bias=False)
          (norm): BatchNorm2d(96, eps=1e-05, momentum=0.1, affine=True, track_running_stats=True)
          (act): Act(
            (act): GELU(approximate='none')
          )
        )
        (1): PyramidConvX(
          (branch_1): Sequential(
            (0): AvgPool2d(kernel_size=3, stride=1, padding=1)
            (1): ConvX(
              (conv): Conv2d(96, 96, kernel_size=(3, 3), stride=(1, 1), padding=(1, 1), groups=96, bias=False)
              (norm): BatchNorm2d(96, eps=1e-05, momentum=0.1, affine=True, track_running_stats=True)
              (act): Act()
            )
          )
          (branch_2): Sequential(
            (0): AvgPool2d(kernel_size=5, stride=2, padding=2)
            (1): ConvX(
              (conv): Conv2d(96, 96, kernel_size=(3, 3), stride=(1, 1), padding=(1, 1), groups=96, bias=False)
              (norm): BatchNorm2d(96, eps=1e-05, momentum=0.1, affine=True, track_running_stats=True)
              (act): Act()
            )
          )
          (branch_3): Sequential(
            (0): AvgPool2d(kernel_size=7, stride=3, padding=3)
            (1): ConvX(
              (conv): Conv2d(96, 96, kernel_size=(3, 3), stride=(1, 1), padding=(1, 1), groups=96, bias=False)
              (norm): BatchNorm2d(96, eps=1e-05, momentum=0.1, affine=True, track_running_stats=True)
              (act): Act()
            )
          )
          (act): Act(
            (act): GELU(approximate='none')
          )
        )
        (2): ConvX(
          (conv): Conv2d(96, 96, kernel_size=(1, 1), stride=(1, 1), bias=False)
          (norm): BatchNorm2d(96, eps=1e-05, momentum=0.1, affine=True, track_running_stats=True)
          (act): Act()
        )
      )
    )
  )
  (layer2): Sequential(
    (0): DownBlock(
      (mlp): Sequential(
        (0): ConvX(
          (conv): Conv2d(96, 384, kernel_size=(1, 1), stride=(1, 1), bias=False)
          (norm): BatchNorm2d(384, eps=1e-05, momentum=0.1, affine=True, track_running_stats=True)
          (act): Act(
            (act): GELU(approximate='none')
          )
        )
        (1): ConvX(
          (conv): Conv2d(384, 384, kernel_size=(3, 3), stride=(2, 2), padding=(1, 1), groups=384, bias=False)
          (norm): BatchNorm2d(384, eps=1e-05, momentum=0.1, affine=True, track_running_stats=True)
          (act): Act(
            (act): GELU(approximate='none')
          )
        )
        (2): ConvX(
          (conv): Conv2d(384, 192, kernel_size=(1, 1), stride=(1, 1), bias=False)
          (norm): BatchNorm2d(192, eps=1e-05, momentum=0.1, affine=True, track_running_stats=True)
          (act): Act()
        )
      )
      (skip): Sequential(
        (0): ConvX(
          (conv): Conv2d(96, 96, kernel_size=(3, 3), stride=(2, 2), padding=(1, 1), groups=96, bias=False)
          (norm): BatchNorm2d(96, eps=1e-05, momentum=0.1, affine=True, track_running_stats=True)
          (act): Act()
        )
        (1): ConvX(
          (conv): Conv2d(96, 192, kernel_size=(1, 1), stride=(1, 1), bias=False)
          (norm): BatchNorm2d(192, eps=1e-05, momentum=0.1, affine=True, track_running_stats=True)
          (act): Act()
        )
      )
      (drop_path): DropPath(drop_prob=0.050)
    )
    (1): BottleNeck(
      (drop_path): DropPath(drop_prob=0.060)
      (ln): LayerNorm()
      (sblock_in): ConvX(
        (conv): Conv2d(192, 768, kernel_size=(1, 1), stride=(1, 1), bias=False)
        (norm): BatchNorm2d(768, eps=1e-05, momentum=0.1, affine=True, track_running_stats=True)
        (act): Act(
          (act): GELU(approximate='none')
        )
      )
      (sblock_dw): ConvX(
        (conv): Conv2d(384, 384, kernel_size=(3, 3), stride=(1, 1), padding=(1, 1), groups=384, bias=False)
        (norm): BatchNorm2d(384, eps=1e-05, momentum=0.1, affine=True, track_running_stats=True)
        (act): Act()
      )
      (sblock_proj): ConvX(
        (conv): Conv2d(384, 192, kernel_size=(1, 1), stride=(1, 1), bias=False)
        (norm): BatchNorm2d(192, eps=1e-05, momentum=0.1, affine=True, track_running_stats=True)
        (act): Act()
      )
      (mblock): Sequential(
        (0): ConvX(
          (conv): Conv2d(192, 192, kernel_size=(1, 1), stride=(1, 1), bias=False)
          (norm): BatchNorm2d(192, eps=1e-05, momentum=0.1, affine=True, track_running_stats=True)
          (act): Act(
            (act): GELU(approximate='none')
          )
        )
        (1): PyramidConvX(
          (branch_1): Sequential(
            (0): AvgPool2d(kernel_size=3, stride=1, padding=1)
            (1): ConvX(
              (conv): Conv2d(192, 192, kernel_size=(3, 3), stride=(1, 1), padding=(1, 1), groups=192, bias=False)
              (norm): BatchNorm2d(192, eps=1e-05, momentum=0.1, affine=True, track_running_stats=True)
              (act): Act()
            )
          )
          (branch_2): Sequential(
            (0): AvgPool2d(kernel_size=5, stride=2, padding=2)
            (1): ConvX(
              (conv): Conv2d(192, 192, kernel_size=(3, 3), stride=(1, 1), padding=(1, 1), groups=192, bias=False)
              (norm): BatchNorm2d(192, eps=1e-05, momentum=0.1, affine=True, track_running_stats=True)
              (act): Act()
            )
          )
          (branch_3): Sequential(
            (0): AvgPool2d(kernel_size=7, stride=3, padding=3)
            (1): ConvX(
              (conv): Conv2d(192, 192, kernel_size=(3, 3), stride=(1, 1), padding=(1, 1), groups=192, bias=False)
              (norm): BatchNorm2d(192, eps=1e-05, momentum=0.1, affine=True, track_running_stats=True)
              (act): Act()
            )
          )
          (act): Act(
            (act): GELU(approximate='none')
          )
        )
        (2): ConvX(
          (conv): Conv2d(192, 192, kernel_size=(1, 1), stride=(1, 1), bias=False)
          (norm): BatchNorm2d(192, eps=1e-05, momentum=0.1, affine=True, track_running_stats=True)
          (act): Act()
        )
      )
    )
    (2): BottleNeck(
      (drop_path): DropPath(drop_prob=0.070)
      (ln): LayerNorm()
      (sblock_in): ConvX(
        (conv): Conv2d(192, 768, kernel_size=(1, 1), stride=(1, 1), bias=False)
        (norm): BatchNorm2d(768, eps=1e-05, momentum=0.1, affine=True, track_running_stats=True)
        (act): Act(
          (act): GELU(approximate='none')
        )
      )
      (sblock_dw): ConvX(
        (conv): Conv2d(384, 384, kernel_size=(3, 3), stride=(1, 1), padding=(1, 1), groups=384, bias=False)
        (norm): BatchNorm2d(384, eps=1e-05, momentum=0.1, affine=True, track_running_stats=True)
        (act): Act()
      )
      (sblock_proj): ConvX(
        (conv): Conv2d(384, 192, kernel_size=(1, 1), stride=(1, 1), bias=False)
        (norm): BatchNorm2d(192, eps=1e-05, momentum=0.1, affine=True, track_running_stats=True)
        (act): Act()
      )
      (mblock): Sequential(
        (0): ConvX(
          (conv): Conv2d(192, 192, kernel_size=(1, 1), stride=(1, 1), bias=False)
          (norm): BatchNorm2d(192, eps=1e-05, momentum=0.1, affine=True, track_running_stats=True)
          (act): Act(
            (act): GELU(approximate='none')
          )
        )
        (1): PyramidConvX(
          (branch_1): Sequential(
            (0): AvgPool2d(kernel_size=3, stride=1, padding=1)
            (1): ConvX(
              (conv): Conv2d(192, 192, kernel_size=(3, 3), stride=(1, 1), padding=(1, 1), groups=192, bias=False)
              (norm): BatchNorm2d(192, eps=1e-05, momentum=0.1, affine=True, track_running_stats=True)
              (act): Act()
            )
          )
          (branch_2): Sequential(
            (0): AvgPool2d(kernel_size=5, stride=2, padding=2)
            (1): ConvX(
              (conv): Conv2d(192, 192, kernel_size=(3, 3), stride=(1, 1), padding=(1, 1), groups=192, bias=False)
              (norm): BatchNorm2d(192, eps=1e-05, momentum=0.1, affine=True, track_running_stats=True)
              (act): Act()
            )
          )
          (branch_3): Sequential(
            (0): AvgPool2d(kernel_size=7, stride=3, padding=3)
            (1): ConvX(
              (conv): Conv2d(192, 192, kernel_size=(3, 3), stride=(1, 1), padding=(1, 1), groups=192, bias=False)
              (norm): BatchNorm2d(192, eps=1e-05, momentum=0.1, affine=True, track_running_stats=True)
              (act): Act()
            )
          )
          (act): Act(
            (act): GELU(approximate='none')
          )
        )
        (2): ConvX(
          (conv): Conv2d(192, 192, kernel_size=(1, 1), stride=(1, 1), bias=False)
          (norm): BatchNorm2d(192, eps=1e-05, momentum=0.1, affine=True, track_running_stats=True)
          (act): Act()
        )
      )
    )
    (3): BottleNeck(
      (drop_path): DropPath(drop_prob=0.080)
      (ln): LayerNorm()
      (sblock_in): ConvX(
        (conv): Conv2d(192, 768, kernel_size=(1, 1), stride=(1, 1), bias=False)
        (norm): BatchNorm2d(768, eps=1e-05, momentum=0.1, affine=True, track_running_stats=True)
        (act): Act(
          (act): GELU(approximate='none')
        )
      )
      (sblock_dw): ConvX(
        (conv): Conv2d(384, 384, kernel_size=(3, 3), stride=(1, 1), padding=(1, 1), groups=384, bias=False)
        (norm): BatchNorm2d(384, eps=1e-05, momentum=0.1, affine=True, track_running_stats=True)
        (act): Act()
      )
      (sblock_proj): ConvX(
        (conv): Conv2d(384, 192, kernel_size=(1, 1), stride=(1, 1), bias=False)
        (norm): BatchNorm2d(192, eps=1e-05, momentum=0.1, affine=True, track_running_stats=True)
        (act): Act()
      )
      (mblock): Sequential(
        (0): ConvX(
          (conv): Conv2d(192, 192, kernel_size=(1, 1), stride=(1, 1), bias=False)
          (norm): BatchNorm2d(192, eps=1e-05, momentum=0.1, affine=True, track_running_stats=True)
          (act): Act(
            (act): GELU(approximate='none')
          )
        )
        (1): PyramidConvX(
          (branch_1): Sequential(
            (0): AvgPool2d(kernel_size=3, stride=1, padding=1)
            (1): ConvX(
              (conv): Conv2d(192, 192, kernel_size=(3, 3), stride=(1, 1), padding=(1, 1), groups=192, bias=False)
              (norm): BatchNorm2d(192, eps=1e-05, momentum=0.1, affine=True, track_running_stats=True)
              (act): Act()
            )
          )
          (branch_2): Sequential(
            (0): AvgPool2d(kernel_size=5, stride=2, padding=2)
            (1): ConvX(
              (conv): Conv2d(192, 192, kernel_size=(3, 3), stride=(1, 1), padding=(1, 1), groups=192, bias=False)
              (norm): BatchNorm2d(192, eps=1e-05, momentum=0.1, affine=True, track_running_stats=True)
              (act): Act()
            )
          )
          (branch_3): Sequential(
            (0): AvgPool2d(kernel_size=7, stride=3, padding=3)
            (1): ConvX(
              (conv): Conv2d(192, 192, kernel_size=(3, 3), stride=(1, 1), padding=(1, 1), groups=192, bias=False)
              (norm): BatchNorm2d(192, eps=1e-05, momentum=0.1, affine=True, track_running_stats=True)
              (act): Act()
            )
          )
          (act): Act(
            (act): GELU(approximate='none')
          )
        )
        (2): ConvX(
          (conv): Conv2d(192, 192, kernel_size=(1, 1), stride=(1, 1), bias=False)
          (norm): BatchNorm2d(192, eps=1e-05, momentum=0.1, affine=True, track_running_stats=True)
          (act): Act()
        )
      )
    )
    (4): BottleNeck(
      (drop_path): DropPath(drop_prob=0.090)
      (ln): LayerNorm()
      (sblock_in): ConvX(
        (conv): Conv2d(192, 768, kernel_size=(1, 1), stride=(1, 1), bias=False)
        (norm): BatchNorm2d(768, eps=1e-05, momentum=0.1, affine=True, track_running_stats=True)
        (act): Act(
          (act): GELU(approximate='none')
        )
      )
      (sblock_dw): ConvX(
        (conv): Conv2d(384, 384, kernel_size=(3, 3), stride=(1, 1), padding=(1, 1), groups=384, bias=False)
        (norm): BatchNorm2d(384, eps=1e-05, momentum=0.1, affine=True, track_running_stats=True)
        (act): Act()
      )
      (sblock_proj): ConvX(
        (conv): Conv2d(384, 192, kernel_size=(1, 1), stride=(1, 1), bias=False)
        (norm): BatchNorm2d(192, eps=1e-05, momentum=0.1, affine=True, track_running_stats=True)
        (act): Act()
      )
      (mblock): Sequential(
        (0): ConvX(
          (conv): Conv2d(192, 192, kernel_size=(1, 1), stride=(1, 1), bias=False)
          (norm): BatchNorm2d(192, eps=1e-05, momentum=0.1, affine=True, track_running_stats=True)
          (act): Act(
            (act): GELU(approximate='none')
          )
        )
        (1): PyramidConvX(
          (branch_1): Sequential(
            (0): AvgPool2d(kernel_size=3, stride=1, padding=1)
            (1): ConvX(
              (conv): Conv2d(192, 192, kernel_size=(3, 3), stride=(1, 1), padding=(1, 1), groups=192, bias=False)
              (norm): BatchNorm2d(192, eps=1e-05, momentum=0.1, affine=True, track_running_stats=True)
              (act): Act()
            )
          )
          (branch_2): Sequential(
            (0): AvgPool2d(kernel_size=5, stride=2, padding=2)
            (1): ConvX(
              (conv): Conv2d(192, 192, kernel_size=(3, 3), stride=(1, 1), padding=(1, 1), groups=192, bias=False)
              (norm): BatchNorm2d(192, eps=1e-05, momentum=0.1, affine=True, track_running_stats=True)
              (act): Act()
            )
          )
          (branch_3): Sequential(
            (0): AvgPool2d(kernel_size=7, stride=3, padding=3)
            (1): ConvX(
              (conv): Conv2d(192, 192, kernel_size=(3, 3), stride=(1, 1), padding=(1, 1), groups=192, bias=False)
              (norm): BatchNorm2d(192, eps=1e-05, momentum=0.1, affine=True, track_running_stats=True)
              (act): Act()
            )
          )
          (act): Act(
            (act): GELU(approximate='none')
          )
        )
        (2): ConvX(
          (conv): Conv2d(192, 192, kernel_size=(1, 1), stride=(1, 1), bias=False)
          (norm): BatchNorm2d(192, eps=1e-05, momentum=0.1, affine=True, track_running_stats=True)
          (act): Act()
        )
      )
    )
    (5): BottleNeck(
      (drop_path): DropPath(drop_prob=0.100)
      (ln): LayerNorm()
      (sblock_in): ConvX(
        (conv): Conv2d(192, 768, kernel_size=(1, 1), stride=(1, 1), bias=False)
        (norm): BatchNorm2d(768, eps=1e-05, momentum=0.1, affine=True, track_running_stats=True)
        (act): Act(
          (act): GELU(approximate='none')
        )
      )
      (sblock_dw): ConvX(
        (conv): Conv2d(384, 384, kernel_size=(3, 3), stride=(1, 1), padding=(1, 1), groups=384, bias=False)
        (norm): BatchNorm2d(384, eps=1e-05, momentum=0.1, affine=True, track_running_stats=True)
        (act): Act()
      )
      (sblock_proj): ConvX(
        (conv): Conv2d(384, 192, kernel_size=(1, 1), stride=(1, 1), bias=False)
        (norm): BatchNorm2d(192, eps=1e-05, momentum=0.1, affine=True, track_running_stats=True)
        (act): Act()
      )
      (mblock): Sequential(
        (0): ConvX(
          (conv): Conv2d(192, 192, kernel_size=(1, 1), stride=(1, 1), bias=False)
          (norm): BatchNorm2d(192, eps=1e-05, momentum=0.1, affine=True, track_running_stats=True)
          (act): Act(
            (act): GELU(approximate='none')
          )
        )
        (1): PyramidConvX(
          (branch_1): Sequential(
            (0): AvgPool2d(kernel_size=3, stride=1, padding=1)
            (1): ConvX(
              (conv): Conv2d(192, 192, kernel_size=(3, 3), stride=(1, 1), padding=(1, 1), groups=192, bias=False)
              (norm): BatchNorm2d(192, eps=1e-05, momentum=0.1, affine=True, track_running_stats=True)
              (act): Act()
            )
          )
          (branch_2): Sequential(
            (0): AvgPool2d(kernel_size=5, stride=2, padding=2)
            (1): ConvX(
              (conv): Conv2d(192, 192, kernel_size=(3, 3), stride=(1, 1), padding=(1, 1), groups=192, bias=False)
              (norm): BatchNorm2d(192, eps=1e-05, momentum=0.1, affine=True, track_running_stats=True)
              (act): Act()
            )
          )
          (branch_3): Sequential(
            (0): AvgPool2d(kernel_size=7, stride=3, padding=3)
            (1): ConvX(
              (conv): Conv2d(192, 192, kernel_size=(3, 3), stride=(1, 1), padding=(1, 1), groups=192, bias=False)
              (norm): BatchNorm2d(192, eps=1e-05, momentum=0.1, affine=True, track_running_stats=True)
              (act): Act()
            )
          )
          (act): Act(
            (act): GELU(approximate='none')
          )
        )
        (2): ConvX(
          (conv): Conv2d(192, 192, kernel_size=(1, 1), stride=(1, 1), bias=False)
          (norm): BatchNorm2d(192, eps=1e-05, momentum=0.1, affine=True, track_running_stats=True)
          (act): Act()
        )
      )
    )
    (6): BottleNeck(
      (drop_path): DropPath(drop_prob=0.110)
      (ln): LayerNorm()
      (sblock_in): ConvX(
        (conv): Conv2d(192, 768, kernel_size=(1, 1), stride=(1, 1), bias=False)
        (norm): BatchNorm2d(768, eps=1e-05, momentum=0.1, affine=True, track_running_stats=True)
        (act): Act(
          (act): GELU(approximate='none')
        )
      )
      (sblock_dw): ConvX(
        (conv): Conv2d(384, 384, kernel_size=(3, 3), stride=(1, 1), padding=(1, 1), groups=384, bias=False)
        (norm): BatchNorm2d(384, eps=1e-05, momentum=0.1, affine=True, track_running_stats=True)
        (act): Act()
      )
      (sblock_proj): ConvX(
        (conv): Conv2d(384, 192, kernel_size=(1, 1), stride=(1, 1), bias=False)
        (norm): BatchNorm2d(192, eps=1e-05, momentum=0.1, affine=True, track_running_stats=True)
        (act): Act()
      )
      (mblock): Sequential(
        (0): ConvX(
          (conv): Conv2d(192, 192, kernel_size=(1, 1), stride=(1, 1), bias=False)
          (norm): BatchNorm2d(192, eps=1e-05, momentum=0.1, affine=True, track_running_stats=True)
          (act): Act(
            (act): GELU(approximate='none')
          )
        )
        (1): PyramidConvX(
          (branch_1): Sequential(
            (0): AvgPool2d(kernel_size=3, stride=1, padding=1)
            (1): ConvX(
              (conv): Conv2d(192, 192, kernel_size=(3, 3), stride=(1, 1), padding=(1, 1), groups=192, bias=False)
              (norm): BatchNorm2d(192, eps=1e-05, momentum=0.1, affine=True, track_running_stats=True)
              (act): Act()
            )
          )
          (branch_2): Sequential(
            (0): AvgPool2d(kernel_size=5, stride=2, padding=2)
            (1): ConvX(
              (conv): Conv2d(192, 192, kernel_size=(3, 3), stride=(1, 1), padding=(1, 1), groups=192, bias=False)
              (norm): BatchNorm2d(192, eps=1e-05, momentum=0.1, affine=True, track_running_stats=True)
              (act): Act()
            )
          )
          (branch_3): Sequential(
            (0): AvgPool2d(kernel_size=7, stride=3, padding=3)
            (1): ConvX(
              (conv): Conv2d(192, 192, kernel_size=(3, 3), stride=(1, 1), padding=(1, 1), groups=192, bias=False)
              (norm): BatchNorm2d(192, eps=1e-05, momentum=0.1, affine=True, track_running_stats=True)
              (act): Act()
            )
          )
          (act): Act(
            (act): GELU(approximate='none')
          )
        )
        (2): ConvX(
          (conv): Conv2d(192, 192, kernel_size=(1, 1), stride=(1, 1), bias=False)
          (norm): BatchNorm2d(192, eps=1e-05, momentum=0.1, affine=True, track_running_stats=True)
          (act): Act()
        )
      )
    )
    (7): BottleNeck(
      (drop_path): DropPath(drop_prob=0.120)
      (ln): LayerNorm()
      (sblock_in): ConvX(
        (conv): Conv2d(192, 768, kernel_size=(1, 1), stride=(1, 1), bias=False)
        (norm): BatchNorm2d(768, eps=1e-05, momentum=0.1, affine=True, track_running_stats=True)
        (act): Act(
          (act): GELU(approximate='none')
        )
      )
      (sblock_dw): ConvX(
        (conv): Conv2d(384, 384, kernel_size=(3, 3), stride=(1, 1), padding=(1, 1), groups=384, bias=False)
        (norm): BatchNorm2d(384, eps=1e-05, momentum=0.1, affine=True, track_running_stats=True)
        (act): Act()
      )
      (sblock_proj): ConvX(
        (conv): Conv2d(384, 192, kernel_size=(1, 1), stride=(1, 1), bias=False)
        (norm): BatchNorm2d(192, eps=1e-05, momentum=0.1, affine=True, track_running_stats=True)
        (act): Act()
      )
      (mblock): Sequential(
        (0): ConvX(
          (conv): Conv2d(192, 192, kernel_size=(1, 1), stride=(1, 1), bias=False)
          (norm): BatchNorm2d(192, eps=1e-05, momentum=0.1, affine=True, track_running_stats=True)
          (act): Act(
            (act): GELU(approximate='none')
          )
        )
        (1): PyramidConvX(
          (branch_1): Sequential(
            (0): AvgPool2d(kernel_size=3, stride=1, padding=1)
            (1): ConvX(
              (conv): Conv2d(192, 192, kernel_size=(3, 3), stride=(1, 1), padding=(1, 1), groups=192, bias=False)
              (norm): BatchNorm2d(192, eps=1e-05, momentum=0.1, affine=True, track_running_stats=True)
              (act): Act()
            )
          )
          (branch_2): Sequential(
            (0): AvgPool2d(kernel_size=5, stride=2, padding=2)
            (1): ConvX(
              (conv): Conv2d(192, 192, kernel_size=(3, 3), stride=(1, 1), padding=(1, 1), groups=192, bias=False)
              (norm): BatchNorm2d(192, eps=1e-05, momentum=0.1, affine=True, track_running_stats=True)
              (act): Act()
            )
          )
          (branch_3): Sequential(
            (0): AvgPool2d(kernel_size=7, stride=3, padding=3)
            (1): ConvX(
              (conv): Conv2d(192, 192, kernel_size=(3, 3), stride=(1, 1), padding=(1, 1), groups=192, bias=False)
              (norm): BatchNorm2d(192, eps=1e-05, momentum=0.1, affine=True, track_running_stats=True)
              (act): Act()
            )
          )
          (act): Act(
            (act): GELU(approximate='none')
          )
        )
        (2): ConvX(
          (conv): Conv2d(192, 192, kernel_size=(1, 1), stride=(1, 1), bias=False)
          (norm): BatchNorm2d(192, eps=1e-05, momentum=0.1, affine=True, track_running_stats=True)
          (act): Act()
        )
      )
    )
    (8): BottleNeck(
      (drop_path): DropPath(drop_prob=0.130)
      (ln): LayerNorm()
      (sblock_in): ConvX(
        (conv): Conv2d(192, 768, kernel_size=(1, 1), stride=(1, 1), bias=False)
        (norm): BatchNorm2d(768, eps=1e-05, momentum=0.1, affine=True, track_running_stats=True)
        (act): Act(
          (act): GELU(approximate='none')
        )
      )
      (sblock_dw): ConvX(
        (conv): Conv2d(384, 384, kernel_size=(3, 3), stride=(1, 1), padding=(1, 1), groups=384, bias=False)
        (norm): BatchNorm2d(384, eps=1e-05, momentum=0.1, affine=True, track_running_stats=True)
        (act): Act()
      )
      (sblock_proj): ConvX(
        (conv): Conv2d(384, 192, kernel_size=(1, 1), stride=(1, 1), bias=False)
        (norm): BatchNorm2d(192, eps=1e-05, momentum=0.1, affine=True, track_running_stats=True)
        (act): Act()
      )
      (mblock): Sequential(
        (0): ConvX(
          (conv): Conv2d(192, 192, kernel_size=(1, 1), stride=(1, 1), bias=False)
          (norm): BatchNorm2d(192, eps=1e-05, momentum=0.1, affine=True, track_running_stats=True)
          (act): Act(
            (act): GELU(approximate='none')
          )
        )
        (1): PyramidConvX(
          (branch_1): Sequential(
            (0): AvgPool2d(kernel_size=3, stride=1, padding=1)
            (1): ConvX(
              (conv): Conv2d(192, 192, kernel_size=(3, 3), stride=(1, 1), padding=(1, 1), groups=192, bias=False)
              (norm): BatchNorm2d(192, eps=1e-05, momentum=0.1, affine=True, track_running_stats=True)
              (act): Act()
            )
          )
          (branch_2): Sequential(
            (0): AvgPool2d(kernel_size=5, stride=2, padding=2)
            (1): ConvX(
              (conv): Conv2d(192, 192, kernel_size=(3, 3), stride=(1, 1), padding=(1, 1), groups=192, bias=False)
              (norm): BatchNorm2d(192, eps=1e-05, momentum=0.1, affine=True, track_running_stats=True)
              (act): Act()
            )
          )
          (branch_3): Sequential(
            (0): AvgPool2d(kernel_size=7, stride=3, padding=3)
            (1): ConvX(
              (conv): Conv2d(192, 192, kernel_size=(3, 3), stride=(1, 1), padding=(1, 1), groups=192, bias=False)
              (norm): BatchNorm2d(192, eps=1e-05, momentum=0.1, affine=True, track_running_stats=True)
              (act): Act()
            )
          )
          (act): Act(
            (act): GELU(approximate='none')
          )
        )
        (2): ConvX(
          (conv): Conv2d(192, 192, kernel_size=(1, 1), stride=(1, 1), bias=False)
          (norm): BatchNorm2d(192, eps=1e-05, momentum=0.1, affine=True, track_running_stats=True)
          (act): Act()
        )
      )
    )
  )
  (layer3): Sequential(
    (0): DownBlock(
      (mlp): Sequential(
        (0): ConvX(
          (conv): Conv2d(192, 768, kernel_size=(1, 1), stride=(1, 1), bias=False)
          (norm): BatchNorm2d(768, eps=1e-05, momentum=0.1, affine=True, track_running_stats=True)
          (act): Act(
            (act): GELU(approximate='none')
          )
        )
        (1): ConvX(
          (conv): Conv2d(768, 768, kernel_size=(3, 3), stride=(2, 2), padding=(1, 1), groups=768, bias=False)
          (norm): BatchNorm2d(768, eps=1e-05, momentum=0.1, affine=True, track_running_stats=True)
          (act): Act(
            (act): GELU(approximate='none')
          )
        )
        (2): ConvX(
          (conv): Conv2d(768, 384, kernel_size=(1, 1), stride=(1, 1), bias=False)
          (norm): BatchNorm2d(384, eps=1e-05, momentum=0.1, affine=True, track_running_stats=True)
          (act): Act()
        )
      )
      (skip): Sequential(
        (0): ConvX(
          (conv): Conv2d(192, 192, kernel_size=(3, 3), stride=(2, 2), padding=(1, 1), groups=192, bias=False)
          (norm): BatchNorm2d(192, eps=1e-05, momentum=0.1, affine=True, track_running_stats=True)
          (act): Act()
        )
        (1): ConvX(
          (conv): Conv2d(192, 384, kernel_size=(1, 1), stride=(1, 1), bias=False)
          (norm): BatchNorm2d(384, eps=1e-05, momentum=0.1, affine=True, track_running_stats=True)
          (act): Act()
        )
      )
      (drop_path): DropPath(drop_prob=0.140)
    )
    (1): BottleNeck(
      (drop_path): DropPath(drop_prob=0.150)
      (ln): LayerNorm()
      (sblock_in): ConvX(
        (conv): Conv2d(384, 1536, kernel_size=(1, 1), stride=(1, 1), bias=False)
        (norm): BatchNorm2d(1536, eps=1e-05, momentum=0.1, affine=True, track_running_stats=True)
        (act): Act(
          (act): GELU(approximate='none')
        )
      )
      (sblock_dw): ConvX(
        (conv): Conv2d(768, 768, kernel_size=(3, 3), stride=(1, 1), padding=(1, 1), groups=768, bias=False)
        (norm): BatchNorm2d(768, eps=1e-05, momentum=0.1, affine=True, track_running_stats=True)
        (act): Act()
      )
      (sblock_proj): ConvX(
        (conv): Conv2d(768, 384, kernel_size=(1, 1), stride=(1, 1), bias=False)
        (norm): BatchNorm2d(384, eps=1e-05, momentum=0.1, affine=True, track_running_stats=True)
        (act): Act()
      )
      (mblock): Sequential(
        (0): ConvX(
          (conv): Conv2d(384, 384, kernel_size=(1, 1), stride=(1, 1), bias=False)
          (norm): BatchNorm2d(384, eps=1e-05, momentum=0.1, affine=True, track_running_stats=True)
          (act): Act(
            (act): GELU(approximate='none')
          )
        )
        (1): PyramidConvX(
          (branch_1): Sequential(
            (0): AvgPool2d(kernel_size=3, stride=1, padding=1)
            (1): ConvX(
              (conv): Conv2d(384, 384, kernel_size=(3, 3), stride=(1, 1), padding=(1, 1), groups=384, bias=False)
              (norm): BatchNorm2d(384, eps=1e-05, momentum=0.1, affine=True, track_running_stats=True)
              (act): Act()
            )
          )
          (branch_2): Sequential(
            (0): AvgPool2d(kernel_size=5, stride=2, padding=2)
            (1): ConvX(
              (conv): Conv2d(384, 384, kernel_size=(3, 3), stride=(1, 1), padding=(1, 1), groups=384, bias=False)
              (norm): BatchNorm2d(384, eps=1e-05, momentum=0.1, affine=True, track_running_stats=True)
              (act): Act()
            )
          )
          (branch_3): Sequential(
            (0): AvgPool2d(kernel_size=7, stride=3, padding=3)
            (1): ConvX(
              (conv): Conv2d(384, 384, kernel_size=(3, 3), stride=(1, 1), padding=(1, 1), groups=384, bias=False)
              (norm): BatchNorm2d(384, eps=1e-05, momentum=0.1, affine=True, track_running_stats=True)
              (act): Act()
            )
          )
          (act): Act(
            (act): GELU(approximate='none')
          )
        )
        (2): ConvX(
          (conv): Conv2d(384, 384, kernel_size=(1, 1), stride=(1, 1), bias=False)
          (norm): BatchNorm2d(384, eps=1e-05, momentum=0.1, affine=True, track_running_stats=True)
          (act): Act()
        )
      )
    )
    (2): BottleNeck(
      (drop_path): DropPath(drop_prob=0.160)
      (ln): LayerNorm()
      (sblock_in): ConvX(
        (conv): Conv2d(384, 1536, kernel_size=(1, 1), stride=(1, 1), bias=False)
        (norm): BatchNorm2d(1536, eps=1e-05, momentum=0.1, affine=True, track_running_stats=True)
        (act): Act(
          (act): GELU(approximate='none')
        )
      )
      (sblock_dw): ConvX(
        (conv): Conv2d(768, 768, kernel_size=(3, 3), stride=(1, 1), padding=(1, 1), groups=768, bias=False)
        (norm): BatchNorm2d(768, eps=1e-05, momentum=0.1, affine=True, track_running_stats=True)
        (act): Act()
      )
      (sblock_proj): ConvX(
        (conv): Conv2d(768, 384, kernel_size=(1, 1), stride=(1, 1), bias=False)
        (norm): BatchNorm2d(384, eps=1e-05, momentum=0.1, affine=True, track_running_stats=True)
        (act): Act()
      )
      (mblock): Sequential(
        (0): ConvX(
          (conv): Conv2d(384, 384, kernel_size=(1, 1), stride=(1, 1), bias=False)
          (norm): BatchNorm2d(384, eps=1e-05, momentum=0.1, affine=True, track_running_stats=True)
          (act): Act(
            (act): GELU(approximate='none')
          )
        )
        (1): PyramidConvX(
          (branch_1): Sequential(
            (0): AvgPool2d(kernel_size=3, stride=1, padding=1)
            (1): ConvX(
              (conv): Conv2d(384, 384, kernel_size=(3, 3), stride=(1, 1), padding=(1, 1), groups=384, bias=False)
              (norm): BatchNorm2d(384, eps=1e-05, momentum=0.1, affine=True, track_running_stats=True)
              (act): Act()
            )
          )
          (branch_2): Sequential(
            (0): AvgPool2d(kernel_size=5, stride=2, padding=2)
            (1): ConvX(
              (conv): Conv2d(384, 384, kernel_size=(3, 3), stride=(1, 1), padding=(1, 1), groups=384, bias=False)
              (norm): BatchNorm2d(384, eps=1e-05, momentum=0.1, affine=True, track_running_stats=True)
              (act): Act()
            )
          )
          (branch_3): Sequential(
            (0): AvgPool2d(kernel_size=7, stride=3, padding=3)
            (1): ConvX(
              (conv): Conv2d(384, 384, kernel_size=(3, 3), stride=(1, 1), padding=(1, 1), groups=384, bias=False)
              (norm): BatchNorm2d(384, eps=1e-05, momentum=0.1, affine=True, track_running_stats=True)
              (act): Act()
            )
          )
          (act): Act(
            (act): GELU(approximate='none')
          )
        )
        (2): ConvX(
          (conv): Conv2d(384, 384, kernel_size=(1, 1), stride=(1, 1), bias=False)
          (norm): BatchNorm2d(384, eps=1e-05, momentum=0.1, affine=True, track_running_stats=True)
          (act): Act()
        )
      )
    )
    (3): BottleNeck(
      (drop_path): DropPath(drop_prob=0.170)
      (ln): LayerNorm()
      (sblock_in): ConvX(
        (conv): Conv2d(384, 1536, kernel_size=(1, 1), stride=(1, 1), bias=False)
        (norm): BatchNorm2d(1536, eps=1e-05, momentum=0.1, affine=True, track_running_stats=True)
        (act): Act(
          (act): GELU(approximate='none')
        )
      )
      (sblock_dw): ConvX(
        (conv): Conv2d(768, 768, kernel_size=(3, 3), stride=(1, 1), padding=(1, 1), groups=768, bias=False)
        (norm): BatchNorm2d(768, eps=1e-05, momentum=0.1, affine=True, track_running_stats=True)
        (act): Act()
      )
      (sblock_proj): ConvX(
        (conv): Conv2d(768, 384, kernel_size=(1, 1), stride=(1, 1), bias=False)
        (norm): BatchNorm2d(384, eps=1e-05, momentum=0.1, affine=True, track_running_stats=True)
        (act): Act()
      )
      (mblock): Sequential(
        (0): ConvX(
          (conv): Conv2d(384, 384, kernel_size=(1, 1), stride=(1, 1), bias=False)
          (norm): BatchNorm2d(384, eps=1e-05, momentum=0.1, affine=True, track_running_stats=True)
          (act): Act(
            (act): GELU(approximate='none')
          )
        )
        (1): PyramidConvX(
          (branch_1): Sequential(
            (0): AvgPool2d(kernel_size=3, stride=1, padding=1)
            (1): ConvX(
              (conv): Conv2d(384, 384, kernel_size=(3, 3), stride=(1, 1), padding=(1, 1), groups=384, bias=False)
              (norm): BatchNorm2d(384, eps=1e-05, momentum=0.1, affine=True, track_running_stats=True)
              (act): Act()
            )
          )
          (branch_2): Sequential(
            (0): AvgPool2d(kernel_size=5, stride=2, padding=2)
            (1): ConvX(
              (conv): Conv2d(384, 384, kernel_size=(3, 3), stride=(1, 1), padding=(1, 1), groups=384, bias=False)
              (norm): BatchNorm2d(384, eps=1e-05, momentum=0.1, affine=True, track_running_stats=True)
              (act): Act()
            )
          )
          (branch_3): Sequential(
            (0): AvgPool2d(kernel_size=7, stride=3, padding=3)
            (1): ConvX(
              (conv): Conv2d(384, 384, kernel_size=(3, 3), stride=(1, 1), padding=(1, 1), groups=384, bias=False)
              (norm): BatchNorm2d(384, eps=1e-05, momentum=0.1, affine=True, track_running_stats=True)
              (act): Act()
            )
          )
          (act): Act(
            (act): GELU(approximate='none')
          )
        )
        (2): ConvX(
          (conv): Conv2d(384, 384, kernel_size=(1, 1), stride=(1, 1), bias=False)
          (norm): BatchNorm2d(384, eps=1e-05, momentum=0.1, affine=True, track_running_stats=True)
          (act): Act()
        )
      )
    )
    (4): BottleNeck(
      (drop_path): DropPath(drop_prob=0.180)
      (ln): LayerNorm()
      (sblock_in): ConvX(
        (conv): Conv2d(384, 1536, kernel_size=(1, 1), stride=(1, 1), bias=False)
        (norm): BatchNorm2d(1536, eps=1e-05, momentum=0.1, affine=True, track_running_stats=True)
        (act): Act(
          (act): GELU(approximate='none')
        )
      )
      (sblock_dw): ConvX(
        (conv): Conv2d(768, 768, kernel_size=(3, 3), stride=(1, 1), padding=(1, 1), groups=768, bias=False)
        (norm): BatchNorm2d(768, eps=1e-05, momentum=0.1, affine=True, track_running_stats=True)
        (act): Act()
      )
      (sblock_proj): ConvX(
        (conv): Conv2d(768, 384, kernel_size=(1, 1), stride=(1, 1), bias=False)
        (norm): BatchNorm2d(384, eps=1e-05, momentum=0.1, affine=True, track_running_stats=True)
        (act): Act()
      )
      (mblock): Sequential(
        (0): ConvX(
          (conv): Conv2d(384, 384, kernel_size=(1, 1), stride=(1, 1), bias=False)
          (norm): BatchNorm2d(384, eps=1e-05, momentum=0.1, affine=True, track_running_stats=True)
          (act): Act(
            (act): GELU(approximate='none')
          )
        )
        (1): PyramidConvX(
          (branch_1): Sequential(
            (0): AvgPool2d(kernel_size=3, stride=1, padding=1)
            (1): ConvX(
              (conv): Conv2d(384, 384, kernel_size=(3, 3), stride=(1, 1), padding=(1, 1), groups=384, bias=False)
              (norm): BatchNorm2d(384, eps=1e-05, momentum=0.1, affine=True, track_running_stats=True)
              (act): Act()
            )
          )
          (branch_2): Sequential(
            (0): AvgPool2d(kernel_size=5, stride=2, padding=2)
            (1): ConvX(
              (conv): Conv2d(384, 384, kernel_size=(3, 3), stride=(1, 1), padding=(1, 1), groups=384, bias=False)
              (norm): BatchNorm2d(384, eps=1e-05, momentum=0.1, affine=True, track_running_stats=True)
              (act): Act()
            )
          )
          (branch_3): Sequential(
            (0): AvgPool2d(kernel_size=7, stride=3, padding=3)
            (1): ConvX(
              (conv): Conv2d(384, 384, kernel_size=(3, 3), stride=(1, 1), padding=(1, 1), groups=384, bias=False)
              (norm): BatchNorm2d(384, eps=1e-05, momentum=0.1, affine=True, track_running_stats=True)
              (act): Act()
            )
          )
          (act): Act(
            (act): GELU(approximate='none')
          )
        )
        (2): ConvX(
          (conv): Conv2d(384, 384, kernel_size=(1, 1), stride=(1, 1), bias=False)
          (norm): BatchNorm2d(384, eps=1e-05, momentum=0.1, affine=True, track_running_stats=True)
          (act): Act()
        )
      )
    )
    (5): BottleNeck(
      (drop_path): DropPath(drop_prob=0.190)
      (ln): LayerNorm()
      (sblock_in): ConvX(
        (conv): Conv2d(384, 1536, kernel_size=(1, 1), stride=(1, 1), bias=False)
        (norm): BatchNorm2d(1536, eps=1e-05, momentum=0.1, affine=True, track_running_stats=True)
        (act): Act(
          (act): GELU(approximate='none')
        )
      )
      (sblock_dw): ConvX(
        (conv): Conv2d(768, 768, kernel_size=(3, 3), stride=(1, 1), padding=(1, 1), groups=768, bias=False)
        (norm): BatchNorm2d(768, eps=1e-05, momentum=0.1, affine=True, track_running_stats=True)
        (act): Act()
      )
      (sblock_proj): ConvX(
        (conv): Conv2d(768, 384, kernel_size=(1, 1), stride=(1, 1), bias=False)
        (norm): BatchNorm2d(384, eps=1e-05, momentum=0.1, affine=True, track_running_stats=True)
        (act): Act()
      )
      (mblock): Sequential(
        (0): ConvX(
          (conv): Conv2d(384, 384, kernel_size=(1, 1), stride=(1, 1), bias=False)
          (norm): BatchNorm2d(384, eps=1e-05, momentum=0.1, affine=True, track_running_stats=True)
          (act): Act(
            (act): GELU(approximate='none')
          )
        )
        (1): PyramidConvX(
          (branch_1): Sequential(
            (0): AvgPool2d(kernel_size=3, stride=1, padding=1)
            (1): ConvX(
              (conv): Conv2d(384, 384, kernel_size=(3, 3), stride=(1, 1), padding=(1, 1), groups=384, bias=False)
              (norm): BatchNorm2d(384, eps=1e-05, momentum=0.1, affine=True, track_running_stats=True)
              (act): Act()
            )
          )
          (branch_2): Sequential(
            (0): AvgPool2d(kernel_size=5, stride=2, padding=2)
            (1): ConvX(
              (conv): Conv2d(384, 384, kernel_size=(3, 3), stride=(1, 1), padding=(1, 1), groups=384, bias=False)
              (norm): BatchNorm2d(384, eps=1e-05, momentum=0.1, affine=True, track_running_stats=True)
              (act): Act()
            )
          )
          (branch_3): Sequential(
            (0): AvgPool2d(kernel_size=7, stride=3, padding=3)
            (1): ConvX(
              (conv): Conv2d(384, 384, kernel_size=(3, 3), stride=(1, 1), padding=(1, 1), groups=384, bias=False)
              (norm): BatchNorm2d(384, eps=1e-05, momentum=0.1, affine=True, track_running_stats=True)
              (act): Act()
            )
          )
          (act): Act(
            (act): GELU(approximate='none')
          )
        )
        (2): ConvX(
          (conv): Conv2d(384, 384, kernel_size=(1, 1), stride=(1, 1), bias=False)
          (norm): BatchNorm2d(384, eps=1e-05, momentum=0.1, affine=True, track_running_stats=True)
          (act): Act()
        )
      )
    )
    (6): BottleNeck(
      (drop_path): DropPath(drop_prob=0.200)
      (ln): LayerNorm()
      (sblock_in): ConvX(
        (conv): Conv2d(384, 1536, kernel_size=(1, 1), stride=(1, 1), bias=False)
        (norm): BatchNorm2d(1536, eps=1e-05, momentum=0.1, affine=True, track_running_stats=True)
        (act): Act(
          (act): GELU(approximate='none')
        )
      )
      (sblock_dw): ConvX(
        (conv): Conv2d(768, 768, kernel_size=(3, 3), stride=(1, 1), padding=(1, 1), groups=768, bias=False)
        (norm): BatchNorm2d(768, eps=1e-05, momentum=0.1, affine=True, track_running_stats=True)
        (act): Act()
      )
      (sblock_proj): ConvX(
        (conv): Conv2d(768, 384, kernel_size=(1, 1), stride=(1, 1), bias=False)
        (norm): BatchNorm2d(384, eps=1e-05, momentum=0.1, affine=True, track_running_stats=True)
        (act): Act()
      )
      (mblock): Sequential(
        (0): ConvX(
          (conv): Conv2d(384, 384, kernel_size=(1, 1), stride=(1, 1), bias=False)
          (norm): BatchNorm2d(384, eps=1e-05, momentum=0.1, affine=True, track_running_stats=True)
          (act): Act(
            (act): GELU(approximate='none')
          )
        )
        (1): PyramidConvX(
          (branch_1): Sequential(
            (0): AvgPool2d(kernel_size=3, stride=1, padding=1)
            (1): ConvX(
              (conv): Conv2d(384, 384, kernel_size=(3, 3), stride=(1, 1), padding=(1, 1), groups=384, bias=False)
              (norm): BatchNorm2d(384, eps=1e-05, momentum=0.1, affine=True, track_running_stats=True)
              (act): Act()
            )
          )
          (branch_2): Sequential(
            (0): AvgPool2d(kernel_size=5, stride=2, padding=2)
            (1): ConvX(
              (conv): Conv2d(384, 384, kernel_size=(3, 3), stride=(1, 1), padding=(1, 1), groups=384, bias=False)
              (norm): BatchNorm2d(384, eps=1e-05, momentum=0.1, affine=True, track_running_stats=True)
              (act): Act()
            )
          )
          (branch_3): Sequential(
            (0): AvgPool2d(kernel_size=7, stride=3, padding=3)
            (1): ConvX(
              (conv): Conv2d(384, 384, kernel_size=(3, 3), stride=(1, 1), padding=(1, 1), groups=384, bias=False)
              (norm): BatchNorm2d(384, eps=1e-05, momentum=0.1, affine=True, track_running_stats=True)
              (act): Act()
            )
          )
          (act): Act(
            (act): GELU(approximate='none')
          )
        )
        (2): ConvX(
          (conv): Conv2d(384, 384, kernel_size=(1, 1), stride=(1, 1), bias=False)
          (norm): BatchNorm2d(384, eps=1e-05, momentum=0.1, affine=True, track_running_stats=True)
          (act): Act()
        )
      )
    )
    (7): BottleNeck(
      (drop_path): DropPath(drop_prob=0.210)
      (ln): LayerNorm()
      (sblock_in): ConvX(
        (conv): Conv2d(384, 1536, kernel_size=(1, 1), stride=(1, 1), bias=False)
        (norm): BatchNorm2d(1536, eps=1e-05, momentum=0.1, affine=True, track_running_stats=True)
        (act): Act(
          (act): GELU(approximate='none')
        )
      )
      (sblock_dw): ConvX(
        (conv): Conv2d(768, 768, kernel_size=(3, 3), stride=(1, 1), padding=(1, 1), groups=768, bias=False)
        (norm): BatchNorm2d(768, eps=1e-05, momentum=0.1, affine=True, track_running_stats=True)
        (act): Act()
      )
      (sblock_proj): ConvX(
        (conv): Conv2d(768, 384, kernel_size=(1, 1), stride=(1, 1), bias=False)
        (norm): BatchNorm2d(384, eps=1e-05, momentum=0.1, affine=True, track_running_stats=True)
        (act): Act()
      )
      (mblock): Sequential(
        (0): ConvX(
          (conv): Conv2d(384, 384, kernel_size=(1, 1), stride=(1, 1), bias=False)
          (norm): BatchNorm2d(384, eps=1e-05, momentum=0.1, affine=True, track_running_stats=True)
          (act): Act(
            (act): GELU(approximate='none')
          )
        )
        (1): PyramidConvX(
          (branch_1): Sequential(
            (0): AvgPool2d(kernel_size=3, stride=1, padding=1)
            (1): ConvX(
              (conv): Conv2d(384, 384, kernel_size=(3, 3), stride=(1, 1), padding=(1, 1), groups=384, bias=False)
              (norm): BatchNorm2d(384, eps=1e-05, momentum=0.1, affine=True, track_running_stats=True)
              (act): Act()
            )
          )
          (branch_2): Sequential(
            (0): AvgPool2d(kernel_size=5, stride=2, padding=2)
            (1): ConvX(
              (conv): Conv2d(384, 384, kernel_size=(3, 3), stride=(1, 1), padding=(1, 1), groups=384, bias=False)
              (norm): BatchNorm2d(384, eps=1e-05, momentum=0.1, affine=True, track_running_stats=True)
              (act): Act()
            )
          )
          (branch_3): Sequential(
            (0): AvgPool2d(kernel_size=7, stride=3, padding=3)
            (1): ConvX(
              (conv): Conv2d(384, 384, kernel_size=(3, 3), stride=(1, 1), padding=(1, 1), groups=384, bias=False)
              (norm): BatchNorm2d(384, eps=1e-05, momentum=0.1, affine=True, track_running_stats=True)
              (act): Act()
            )
          )
          (act): Act(
            (act): GELU(approximate='none')
          )
        )
        (2): ConvX(
          (conv): Conv2d(384, 384, kernel_size=(1, 1), stride=(1, 1), bias=False)
          (norm): BatchNorm2d(384, eps=1e-05, momentum=0.1, affine=True, track_running_stats=True)
          (act): Act()
        )
      )
    )
    (8): BottleNeck(
      (drop_path): DropPath(drop_prob=0.220)
      (ln): LayerNorm()
      (sblock_in): ConvX(
        (conv): Conv2d(384, 1536, kernel_size=(1, 1), stride=(1, 1), bias=False)
        (norm): BatchNorm2d(1536, eps=1e-05, momentum=0.1, affine=True, track_running_stats=True)
        (act): Act(
          (act): GELU(approximate='none')
        )
      )
      (sblock_dw): ConvX(
        (conv): Conv2d(768, 768, kernel_size=(3, 3), stride=(1, 1), padding=(1, 1), groups=768, bias=False)
        (norm): BatchNorm2d(768, eps=1e-05, momentum=0.1, affine=True, track_running_stats=True)
        (act): Act()
      )
      (sblock_proj): ConvX(
        (conv): Conv2d(768, 384, kernel_size=(1, 1), stride=(1, 1), bias=False)
        (norm): BatchNorm2d(384, eps=1e-05, momentum=0.1, affine=True, track_running_stats=True)
        (act): Act()
      )
      (mblock): Sequential(
        (0): ConvX(
          (conv): Conv2d(384, 384, kernel_size=(1, 1), stride=(1, 1), bias=False)
          (norm): BatchNorm2d(384, eps=1e-05, momentum=0.1, affine=True, track_running_stats=True)
          (act): Act(
            (act): GELU(approximate='none')
          )
        )
        (1): PyramidConvX(
          (branch_1): Sequential(
            (0): AvgPool2d(kernel_size=3, stride=1, padding=1)
            (1): ConvX(
              (conv): Conv2d(384, 384, kernel_size=(3, 3), stride=(1, 1), padding=(1, 1), groups=384, bias=False)
              (norm): BatchNorm2d(384, eps=1e-05, momentum=0.1, affine=True, track_running_stats=True)
              (act): Act()
            )
          )
          (branch_2): Sequential(
            (0): AvgPool2d(kernel_size=5, stride=2, padding=2)
            (1): ConvX(
              (conv): Conv2d(384, 384, kernel_size=(3, 3), stride=(1, 1), padding=(1, 1), groups=384, bias=False)
              (norm): BatchNorm2d(384, eps=1e-05, momentum=0.1, affine=True, track_running_stats=True)
              (act): Act()
            )
          )
          (branch_3): Sequential(
            (0): AvgPool2d(kernel_size=7, stride=3, padding=3)
            (1): ConvX(
              (conv): Conv2d(384, 384, kernel_size=(3, 3), stride=(1, 1), padding=(1, 1), groups=384, bias=False)
              (norm): BatchNorm2d(384, eps=1e-05, momentum=0.1, affine=True, track_running_stats=True)
              (act): Act()
            )
          )
          (act): Act(
            (act): GELU(approximate='none')
          )
        )
        (2): ConvX(
          (conv): Conv2d(384, 384, kernel_size=(1, 1), stride=(1, 1), bias=False)
          (norm): BatchNorm2d(384, eps=1e-05, momentum=0.1, affine=True, track_running_stats=True)
          (act): Act()
        )
      )
    )
    (9): BottleNeck(
      (drop_path): DropPath(drop_prob=0.230)
      (ln): LayerNorm()
      (sblock_in): ConvX(
        (conv): Conv2d(384, 1536, kernel_size=(1, 1), stride=(1, 1), bias=False)
        (norm): BatchNorm2d(1536, eps=1e-05, momentum=0.1, affine=True, track_running_stats=True)
        (act): Act(
          (act): GELU(approximate='none')
        )
      )
      (sblock_dw): ConvX(
        (conv): Conv2d(768, 768, kernel_size=(3, 3), stride=(1, 1), padding=(1, 1), groups=768, bias=False)
        (norm): BatchNorm2d(768, eps=1e-05, momentum=0.1, affine=True, track_running_stats=True)
        (act): Act()
      )
      (sblock_proj): ConvX(
        (conv): Conv2d(768, 384, kernel_size=(1, 1), stride=(1, 1), bias=False)
        (norm): BatchNorm2d(384, eps=1e-05, momentum=0.1, affine=True, track_running_stats=True)
        (act): Act()
      )
      (mblock): Sequential(
        (0): ConvX(
          (conv): Conv2d(384, 384, kernel_size=(1, 1), stride=(1, 1), bias=False)
          (norm): BatchNorm2d(384, eps=1e-05, momentum=0.1, affine=True, track_running_stats=True)
          (act): Act(
            (act): GELU(approximate='none')
          )
        )
        (1): PyramidConvX(
          (branch_1): Sequential(
            (0): AvgPool2d(kernel_size=3, stride=1, padding=1)
            (1): ConvX(
              (conv): Conv2d(384, 384, kernel_size=(3, 3), stride=(1, 1), padding=(1, 1), groups=384, bias=False)
              (norm): BatchNorm2d(384, eps=1e-05, momentum=0.1, affine=True, track_running_stats=True)
              (act): Act()
            )
          )
          (branch_2): Sequential(
            (0): AvgPool2d(kernel_size=5, stride=2, padding=2)
            (1): ConvX(
              (conv): Conv2d(384, 384, kernel_size=(3, 3), stride=(1, 1), padding=(1, 1), groups=384, bias=False)
              (norm): BatchNorm2d(384, eps=1e-05, momentum=0.1, affine=True, track_running_stats=True)
              (act): Act()
            )
          )
          (branch_3): Sequential(
            (0): AvgPool2d(kernel_size=7, stride=3, padding=3)
            (1): ConvX(
              (conv): Conv2d(384, 384, kernel_size=(3, 3), stride=(1, 1), padding=(1, 1), groups=384, bias=False)
              (norm): BatchNorm2d(384, eps=1e-05, momentum=0.1, affine=True, track_running_stats=True)
              (act): Act()
            )
          )
          (act): Act(
            (act): GELU(approximate='none')
          )
        )
        (2): ConvX(
          (conv): Conv2d(384, 384, kernel_size=(1, 1), stride=(1, 1), bias=False)
          (norm): BatchNorm2d(384, eps=1e-05, momentum=0.1, affine=True, track_running_stats=True)
          (act): Act()
        )
      )
    )
    (10): BottleNeck(
      (drop_path): DropPath(drop_prob=0.240)
      (ln): LayerNorm()
      (sblock_in): ConvX(
        (conv): Conv2d(384, 1536, kernel_size=(1, 1), stride=(1, 1), bias=False)
        (norm): BatchNorm2d(1536, eps=1e-05, momentum=0.1, affine=True, track_running_stats=True)
        (act): Act(
          (act): GELU(approximate='none')
        )
      )
      (sblock_dw): ConvX(
        (conv): Conv2d(768, 768, kernel_size=(3, 3), stride=(1, 1), padding=(1, 1), groups=768, bias=False)
        (norm): BatchNorm2d(768, eps=1e-05, momentum=0.1, affine=True, track_running_stats=True)
        (act): Act()
      )
      (sblock_proj): ConvX(
        (conv): Conv2d(768, 384, kernel_size=(1, 1), stride=(1, 1), bias=False)
        (norm): BatchNorm2d(384, eps=1e-05, momentum=0.1, affine=True, track_running_stats=True)
        (act): Act()
      )
      (mblock): Sequential(
        (0): ConvX(
          (conv): Conv2d(384, 384, kernel_size=(1, 1), stride=(1, 1), bias=False)
          (norm): BatchNorm2d(384, eps=1e-05, momentum=0.1, affine=True, track_running_stats=True)
          (act): Act(
            (act): GELU(approximate='none')
          )
        )
        (1): PyramidConvX(
          (branch_1): Sequential(
            (0): AvgPool2d(kernel_size=3, stride=1, padding=1)
            (1): ConvX(
              (conv): Conv2d(384, 384, kernel_size=(3, 3), stride=(1, 1), padding=(1, 1), groups=384, bias=False)
              (norm): BatchNorm2d(384, eps=1e-05, momentum=0.1, affine=True, track_running_stats=True)
              (act): Act()
            )
          )
          (branch_2): Sequential(
            (0): AvgPool2d(kernel_size=5, stride=2, padding=2)
            (1): ConvX(
              (conv): Conv2d(384, 384, kernel_size=(3, 3), stride=(1, 1), padding=(1, 1), groups=384, bias=False)
              (norm): BatchNorm2d(384, eps=1e-05, momentum=0.1, affine=True, track_running_stats=True)
              (act): Act()
            )
          )
          (branch_3): Sequential(
            (0): AvgPool2d(kernel_size=7, stride=3, padding=3)
            (1): ConvX(
              (conv): Conv2d(384, 384, kernel_size=(3, 3), stride=(1, 1), padding=(1, 1), groups=384, bias=False)
              (norm): BatchNorm2d(384, eps=1e-05, momentum=0.1, affine=True, track_running_stats=True)
              (act): Act()
            )
          )
          (act): Act(
            (act): GELU(approximate='none')
          )
        )
        (2): ConvX(
          (conv): Conv2d(384, 384, kernel_size=(1, 1), stride=(1, 1), bias=False)
          (norm): BatchNorm2d(384, eps=1e-05, momentum=0.1, affine=True, track_running_stats=True)
          (act): Act()
        )
      )
    )
    (11): BottleNeck(
      (drop_path): DropPath(drop_prob=0.250)
      (ln): LayerNorm()
      (sblock_in): ConvX(
        (conv): Conv2d(384, 1536, kernel_size=(1, 1), stride=(1, 1), bias=False)
        (norm): BatchNorm2d(1536, eps=1e-05, momentum=0.1, affine=True, track_running_stats=True)
        (act): Act(
          (act): GELU(approximate='none')
        )
      )
      (sblock_dw): ConvX(
        (conv): Conv2d(768, 768, kernel_size=(3, 3), stride=(1, 1), padding=(1, 1), groups=768, bias=False)
        (norm): BatchNorm2d(768, eps=1e-05, momentum=0.1, affine=True, track_running_stats=True)
        (act): Act()
      )
      (sblock_proj): ConvX(
        (conv): Conv2d(768, 384, kernel_size=(1, 1), stride=(1, 1), bias=False)
        (norm): BatchNorm2d(384, eps=1e-05, momentum=0.1, affine=True, track_running_stats=True)
        (act): Act()
      )
      (mblock): Sequential(
        (0): ConvX(
          (conv): Conv2d(384, 384, kernel_size=(1, 1), stride=(1, 1), bias=False)
          (norm): BatchNorm2d(384, eps=1e-05, momentum=0.1, affine=True, track_running_stats=True)
          (act): Act(
            (act): GELU(approximate='none')
          )
        )
        (1): PyramidConvX(
          (branch_1): Sequential(
            (0): AvgPool2d(kernel_size=3, stride=1, padding=1)
            (1): ConvX(
              (conv): Conv2d(384, 384, kernel_size=(3, 3), stride=(1, 1), padding=(1, 1), groups=384, bias=False)
              (norm): BatchNorm2d(384, eps=1e-05, momentum=0.1, affine=True, track_running_stats=True)
              (act): Act()
            )
          )
          (branch_2): Sequential(
            (0): AvgPool2d(kernel_size=5, stride=2, padding=2)
            (1): ConvX(
              (conv): Conv2d(384, 384, kernel_size=(3, 3), stride=(1, 1), padding=(1, 1), groups=384, bias=False)
              (norm): BatchNorm2d(384, eps=1e-05, momentum=0.1, affine=True, track_running_stats=True)
              (act): Act()
            )
          )
          (branch_3): Sequential(
            (0): AvgPool2d(kernel_size=7, stride=3, padding=3)
            (1): ConvX(
              (conv): Conv2d(384, 384, kernel_size=(3, 3), stride=(1, 1), padding=(1, 1), groups=384, bias=False)
              (norm): BatchNorm2d(384, eps=1e-05, momentum=0.1, affine=True, track_running_stats=True)
              (act): Act()
            )
          )
          (act): Act(
            (act): GELU(approximate='none')
          )
        )
        (2): ConvX(
          (conv): Conv2d(384, 384, kernel_size=(1, 1), stride=(1, 1), bias=False)
          (norm): BatchNorm2d(384, eps=1e-05, momentum=0.1, affine=True, track_running_stats=True)
          (act): Act()
        )
      )
    )
    (12): BottleNeck(
      (drop_path): DropPath(drop_prob=0.260)
      (ln): LayerNorm()
      (sblock_in): ConvX(
        (conv): Conv2d(384, 1536, kernel_size=(1, 1), stride=(1, 1), bias=False)
        (norm): BatchNorm2d(1536, eps=1e-05, momentum=0.1, affine=True, track_running_stats=True)
        (act): Act(
          (act): GELU(approximate='none')
        )
      )
      (sblock_dw): ConvX(
        (conv): Conv2d(768, 768, kernel_size=(3, 3), stride=(1, 1), padding=(1, 1), groups=768, bias=False)
        (norm): BatchNorm2d(768, eps=1e-05, momentum=0.1, affine=True, track_running_stats=True)
        (act): Act()
      )
      (sblock_proj): ConvX(
        (conv): Conv2d(768, 384, kernel_size=(1, 1), stride=(1, 1), bias=False)
        (norm): BatchNorm2d(384, eps=1e-05, momentum=0.1, affine=True, track_running_stats=True)
        (act): Act()
      )
      (mblock): Sequential(
        (0): ConvX(
          (conv): Conv2d(384, 384, kernel_size=(1, 1), stride=(1, 1), bias=False)
          (norm): BatchNorm2d(384, eps=1e-05, momentum=0.1, affine=True, track_running_stats=True)
          (act): Act(
            (act): GELU(approximate='none')
          )
        )
        (1): PyramidConvX(
          (branch_1): Sequential(
            (0): AvgPool2d(kernel_size=3, stride=1, padding=1)
            (1): ConvX(
              (conv): Conv2d(384, 384, kernel_size=(3, 3), stride=(1, 1), padding=(1, 1), groups=384, bias=False)
              (norm): BatchNorm2d(384, eps=1e-05, momentum=0.1, affine=True, track_running_stats=True)
              (act): Act()
            )
          )
          (branch_2): Sequential(
            (0): AvgPool2d(kernel_size=5, stride=2, padding=2)
            (1): ConvX(
              (conv): Conv2d(384, 384, kernel_size=(3, 3), stride=(1, 1), padding=(1, 1), groups=384, bias=False)
              (norm): BatchNorm2d(384, eps=1e-05, momentum=0.1, affine=True, track_running_stats=True)
              (act): Act()
            )
          )
          (branch_3): Sequential(
            (0): AvgPool2d(kernel_size=7, stride=3, padding=3)
            (1): ConvX(
              (conv): Conv2d(384, 384, kernel_size=(3, 3), stride=(1, 1), padding=(1, 1), groups=384, bias=False)
              (norm): BatchNorm2d(384, eps=1e-05, momentum=0.1, affine=True, track_running_stats=True)
              (act): Act()
            )
          )
          (act): Act(
            (act): GELU(approximate='none')
          )
        )
        (2): ConvX(
          (conv): Conv2d(384, 384, kernel_size=(1, 1), stride=(1, 1), bias=False)
          (norm): BatchNorm2d(384, eps=1e-05, momentum=0.1, affine=True, track_running_stats=True)
          (act): Act()
        )
      )
    )
    (13): BottleNeck(
      (drop_path): DropPath(drop_prob=0.270)
      (ln): LayerNorm()
      (sblock_in): ConvX(
        (conv): Conv2d(384, 1536, kernel_size=(1, 1), stride=(1, 1), bias=False)
        (norm): BatchNorm2d(1536, eps=1e-05, momentum=0.1, affine=True, track_running_stats=True)
        (act): Act(
          (act): GELU(approximate='none')
        )
      )
      (sblock_dw): ConvX(
        (conv): Conv2d(768, 768, kernel_size=(3, 3), stride=(1, 1), padding=(1, 1), groups=768, bias=False)
        (norm): BatchNorm2d(768, eps=1e-05, momentum=0.1, affine=True, track_running_stats=True)
        (act): Act()
      )
      (sblock_proj): ConvX(
        (conv): Conv2d(768, 384, kernel_size=(1, 1), stride=(1, 1), bias=False)
        (norm): BatchNorm2d(384, eps=1e-05, momentum=0.1, affine=True, track_running_stats=True)
        (act): Act()
      )
      (mblock): Sequential(
        (0): ConvX(
          (conv): Conv2d(384, 384, kernel_size=(1, 1), stride=(1, 1), bias=False)
          (norm): BatchNorm2d(384, eps=1e-05, momentum=0.1, affine=True, track_running_stats=True)
          (act): Act(
            (act): GELU(approximate='none')
          )
        )
        (1): PyramidConvX(
          (branch_1): Sequential(
            (0): AvgPool2d(kernel_size=3, stride=1, padding=1)
            (1): ConvX(
              (conv): Conv2d(384, 384, kernel_size=(3, 3), stride=(1, 1), padding=(1, 1), groups=384, bias=False)
              (norm): BatchNorm2d(384, eps=1e-05, momentum=0.1, affine=True, track_running_stats=True)
              (act): Act()
            )
          )
          (branch_2): Sequential(
            (0): AvgPool2d(kernel_size=5, stride=2, padding=2)
            (1): ConvX(
              (conv): Conv2d(384, 384, kernel_size=(3, 3), stride=(1, 1), padding=(1, 1), groups=384, bias=False)
              (norm): BatchNorm2d(384, eps=1e-05, momentum=0.1, affine=True, track_running_stats=True)
              (act): Act()
            )
          )
          (branch_3): Sequential(
            (0): AvgPool2d(kernel_size=7, stride=3, padding=3)
            (1): ConvX(
              (conv): Conv2d(384, 384, kernel_size=(3, 3), stride=(1, 1), padding=(1, 1), groups=384, bias=False)
              (norm): BatchNorm2d(384, eps=1e-05, momentum=0.1, affine=True, track_running_stats=True)
              (act): Act()
            )
          )
          (act): Act(
            (act): GELU(approximate='none')
          )
        )
        (2): ConvX(
          (conv): Conv2d(384, 384, kernel_size=(1, 1), stride=(1, 1), bias=False)
          (norm): BatchNorm2d(384, eps=1e-05, momentum=0.1, affine=True, track_running_stats=True)
          (act): Act()
        )
      )
    )
    (14): BottleNeck(
      (drop_path): DropPath(drop_prob=0.280)
      (ln): LayerNorm()
      (sblock_in): ConvX(
        (conv): Conv2d(384, 1536, kernel_size=(1, 1), stride=(1, 1), bias=False)
        (norm): BatchNorm2d(1536, eps=1e-05, momentum=0.1, affine=True, track_running_stats=True)
        (act): Act(
          (act): GELU(approximate='none')
        )
      )
      (sblock_dw): ConvX(
        (conv): Conv2d(768, 768, kernel_size=(3, 3), stride=(1, 1), padding=(1, 1), groups=768, bias=False)
        (norm): BatchNorm2d(768, eps=1e-05, momentum=0.1, affine=True, track_running_stats=True)
        (act): Act()
      )
      (sblock_proj): ConvX(
        (conv): Conv2d(768, 384, kernel_size=(1, 1), stride=(1, 1), bias=False)
        (norm): BatchNorm2d(384, eps=1e-05, momentum=0.1, affine=True, track_running_stats=True)
        (act): Act()
      )
      (mblock): Sequential(
        (0): ConvX(
          (conv): Conv2d(384, 384, kernel_size=(1, 1), stride=(1, 1), bias=False)
          (norm): BatchNorm2d(384, eps=1e-05, momentum=0.1, affine=True, track_running_stats=True)
          (act): Act(
            (act): GELU(approximate='none')
          )
        )
        (1): PyramidConvX(
          (branch_1): Sequential(
            (0): AvgPool2d(kernel_size=3, stride=1, padding=1)
            (1): ConvX(
              (conv): Conv2d(384, 384, kernel_size=(3, 3), stride=(1, 1), padding=(1, 1), groups=384, bias=False)
              (norm): BatchNorm2d(384, eps=1e-05, momentum=0.1, affine=True, track_running_stats=True)
              (act): Act()
            )
          )
          (branch_2): Sequential(
            (0): AvgPool2d(kernel_size=5, stride=2, padding=2)
            (1): ConvX(
              (conv): Conv2d(384, 384, kernel_size=(3, 3), stride=(1, 1), padding=(1, 1), groups=384, bias=False)
              (norm): BatchNorm2d(384, eps=1e-05, momentum=0.1, affine=True, track_running_stats=True)
              (act): Act()
            )
          )
          (branch_3): Sequential(
            (0): AvgPool2d(kernel_size=7, stride=3, padding=3)
            (1): ConvX(
              (conv): Conv2d(384, 384, kernel_size=(3, 3), stride=(1, 1), padding=(1, 1), groups=384, bias=False)
              (norm): BatchNorm2d(384, eps=1e-05, momentum=0.1, affine=True, track_running_stats=True)
              (act): Act()
            )
          )
          (act): Act(
            (act): GELU(approximate='none')
          )
        )
        (2): ConvX(
          (conv): Conv2d(384, 384, kernel_size=(1, 1), stride=(1, 1), bias=False)
          (norm): BatchNorm2d(384, eps=1e-05, momentum=0.1, affine=True, track_running_stats=True)
          (act): Act()
        )
      )
    )
    (15): BottleNeck(
      (drop_path): DropPath(drop_prob=0.290)
      (ln): LayerNorm()
      (sblock_in): ConvX(
        (conv): Conv2d(384, 1536, kernel_size=(1, 1), stride=(1, 1), bias=False)
        (norm): BatchNorm2d(1536, eps=1e-05, momentum=0.1, affine=True, track_running_stats=True)
        (act): Act(
          (act): GELU(approximate='none')
        )
      )
      (sblock_dw): ConvX(
        (conv): Conv2d(768, 768, kernel_size=(3, 3), stride=(1, 1), padding=(1, 1), groups=768, bias=False)
        (norm): BatchNorm2d(768, eps=1e-05, momentum=0.1, affine=True, track_running_stats=True)
        (act): Act()
      )
      (sblock_proj): ConvX(
        (conv): Conv2d(768, 384, kernel_size=(1, 1), stride=(1, 1), bias=False)
        (norm): BatchNorm2d(384, eps=1e-05, momentum=0.1, affine=True, track_running_stats=True)
        (act): Act()
      )
      (mblock): Sequential(
        (0): ConvX(
          (conv): Conv2d(384, 384, kernel_size=(1, 1), stride=(1, 1), bias=False)
          (norm): BatchNorm2d(384, eps=1e-05, momentum=0.1, affine=True, track_running_stats=True)
          (act): Act(
            (act): GELU(approximate='none')
          )
        )
        (1): PyramidConvX(
          (branch_1): Sequential(
            (0): AvgPool2d(kernel_size=3, stride=1, padding=1)
            (1): ConvX(
              (conv): Conv2d(384, 384, kernel_size=(3, 3), stride=(1, 1), padding=(1, 1), groups=384, bias=False)
              (norm): BatchNorm2d(384, eps=1e-05, momentum=0.1, affine=True, track_running_stats=True)
              (act): Act()
            )
          )
          (branch_2): Sequential(
            (0): AvgPool2d(kernel_size=5, stride=2, padding=2)
            (1): ConvX(
              (conv): Conv2d(384, 384, kernel_size=(3, 3), stride=(1, 1), padding=(1, 1), groups=384, bias=False)
              (norm): BatchNorm2d(384, eps=1e-05, momentum=0.1, affine=True, track_running_stats=True)
              (act): Act()
            )
          )
          (branch_3): Sequential(
            (0): AvgPool2d(kernel_size=7, stride=3, padding=3)
            (1): ConvX(
              (conv): Conv2d(384, 384, kernel_size=(3, 3), stride=(1, 1), padding=(1, 1), groups=384, bias=False)
              (norm): BatchNorm2d(384, eps=1e-05, momentum=0.1, affine=True, track_running_stats=True)
              (act): Act()
            )
          )
          (act): Act(
            (act): GELU(approximate='none')
          )
        )
        (2): ConvX(
          (conv): Conv2d(384, 384, kernel_size=(1, 1), stride=(1, 1), bias=False)
          (norm): BatchNorm2d(384, eps=1e-05, momentum=0.1, affine=True, track_running_stats=True)
          (act): Act()
        )
      )
    )
    (16): BottleNeck(
      (drop_path): DropPath(drop_prob=0.300)
      (ln): LayerNorm()
      (sblock_in): ConvX(
        (conv): Conv2d(384, 1536, kernel_size=(1, 1), stride=(1, 1), bias=False)
        (norm): BatchNorm2d(1536, eps=1e-05, momentum=0.1, affine=True, track_running_stats=True)
        (act): Act(
          (act): GELU(approximate='none')
        )
      )
      (sblock_dw): ConvX(
        (conv): Conv2d(768, 768, kernel_size=(3, 3), stride=(1, 1), padding=(1, 1), groups=768, bias=False)
        (norm): BatchNorm2d(768, eps=1e-05, momentum=0.1, affine=True, track_running_stats=True)
        (act): Act()
      )
      (sblock_proj): ConvX(
        (conv): Conv2d(768, 384, kernel_size=(1, 1), stride=(1, 1), bias=False)
        (norm): BatchNorm2d(384, eps=1e-05, momentum=0.1, affine=True, track_running_stats=True)
        (act): Act()
      )
      (mblock): Sequential(
        (0): ConvX(
          (conv): Conv2d(384, 384, kernel_size=(1, 1), stride=(1, 1), bias=False)
          (norm): BatchNorm2d(384, eps=1e-05, momentum=0.1, affine=True, track_running_stats=True)
          (act): Act(
            (act): GELU(approximate='none')
          )
        )
        (1): PyramidConvX(
          (branch_1): Sequential(
            (0): AvgPool2d(kernel_size=3, stride=1, padding=1)
            (1): ConvX(
              (conv): Conv2d(384, 384, kernel_size=(3, 3), stride=(1, 1), padding=(1, 1), groups=384, bias=False)
              (norm): BatchNorm2d(384, eps=1e-05, momentum=0.1, affine=True, track_running_stats=True)
              (act): Act()
            )
          )
          (branch_2): Sequential(
            (0): AvgPool2d(kernel_size=5, stride=2, padding=2)
            (1): ConvX(
              (conv): Conv2d(384, 384, kernel_size=(3, 3), stride=(1, 1), padding=(1, 1), groups=384, bias=False)
              (norm): BatchNorm2d(384, eps=1e-05, momentum=0.1, affine=True, track_running_stats=True)
              (act): Act()
            )
          )
          (branch_3): Sequential(
            (0): AvgPool2d(kernel_size=7, stride=3, padding=3)
            (1): ConvX(
              (conv): Conv2d(384, 384, kernel_size=(3, 3), stride=(1, 1), padding=(1, 1), groups=384, bias=False)
              (norm): BatchNorm2d(384, eps=1e-05, momentum=0.1, affine=True, track_running_stats=True)
              (act): Act()
            )
          )
          (act): Act(
            (act): GELU(approximate='none')
          )
        )
        (2): ConvX(
          (conv): Conv2d(384, 384, kernel_size=(1, 1), stride=(1, 1), bias=False)
          (norm): BatchNorm2d(384, eps=1e-05, momentum=0.1, affine=True, track_running_stats=True)
          (act): Act()
        )
      )
    )
  )
  (layer4): Sequential(
    (0): DownBlock(
      (mlp): Sequential(
        (0): ConvX(
          (conv): Conv2d(384, 1536, kernel_size=(1, 1), stride=(1, 1), bias=False)
          (norm): BatchNorm2d(1536, eps=1e-05, momentum=0.1, affine=True, track_running_stats=True)
          (act): Act(
            (act): GELU(approximate='none')
          )
        )
        (1): ConvX(
          (conv): Conv2d(1536, 1536, kernel_size=(3, 3), stride=(2, 2), padding=(1, 1), groups=1536, bias=False)
          (norm): BatchNorm2d(1536, eps=1e-05, momentum=0.1, affine=True, track_running_stats=True)
          (act): Act(
            (act): GELU(approximate='none')
          )
        )
        (2): ConvX(
          (conv): Conv2d(1536, 768, kernel_size=(1, 1), stride=(1, 1), bias=False)
          (norm): BatchNorm2d(768, eps=1e-05, momentum=0.1, affine=True, track_running_stats=True)
          (act): Act()
        )
      )
      (skip): Sequential(
        (0): ConvX(
          (conv): Conv2d(384, 384, kernel_size=(3, 3), stride=(2, 2), padding=(1, 1), groups=384, bias=False)
          (norm): BatchNorm2d(384, eps=1e-05, momentum=0.1, affine=True, track_running_stats=True)
          (act): Act()
        )
        (1): ConvX(
          (conv): Conv2d(384, 768, kernel_size=(1, 1), stride=(1, 1), bias=False)
          (norm): BatchNorm2d(768, eps=1e-05, momentum=0.1, affine=True, track_running_stats=True)
          (act): Act()
        )
      )
      (drop_path): DropPath(drop_prob=0.310)
    )
    (1): BottleNeck(
      (drop_path): DropPath(drop_prob=0.320)
      (ln): LayerNorm()
      (sblock_in): ConvX(
        (conv): Conv2d(768, 3072, kernel_size=(1, 1), stride=(1, 1), bias=False)
        (norm): BatchNorm2d(3072, eps=1e-05, momentum=0.1, affine=True, track_running_stats=True)
        (act): Act(
          (act): GELU(approximate='none')
        )
      )
      (sblock_dw): ConvX(
        (conv): Conv2d(1536, 1536, kernel_size=(3, 3), stride=(1, 1), padding=(1, 1), groups=1536, bias=False)
        (norm): BatchNorm2d(1536, eps=1e-05, momentum=0.1, affine=True, track_running_stats=True)
        (act): Act()
      )
      (sblock_proj): ConvX(
        (conv): Conv2d(1536, 768, kernel_size=(1, 1), stride=(1, 1), bias=False)
        (norm): BatchNorm2d(768, eps=1e-05, momentum=0.1, affine=True, track_running_stats=True)
        (act): Act()
      )
      (mblock): Sequential(
        (0): ConvX(
          (conv): Conv2d(768, 768, kernel_size=(1, 1), stride=(1, 1), bias=False)
          (norm): BatchNorm2d(768, eps=1e-05, momentum=0.1, affine=True, track_running_stats=True)
          (act): Act(
            (act): GELU(approximate='none')
          )
        )
        (1): PyramidConvX(
          (branch_1): Sequential(
            (0): AvgPool2d(kernel_size=3, stride=1, padding=1)
            (1): ConvX(
              (conv): Conv2d(768, 768, kernel_size=(3, 3), stride=(1, 1), padding=(1, 1), groups=768, bias=False)
              (norm): BatchNorm2d(768, eps=1e-05, momentum=0.1, affine=True, track_running_stats=True)
              (act): Act()
            )
          )
          (branch_2): Sequential(
            (0): AvgPool2d(kernel_size=5, stride=2, padding=2)
            (1): ConvX(
              (conv): Conv2d(768, 768, kernel_size=(3, 3), stride=(1, 1), padding=(1, 1), groups=768, bias=False)
              (norm): BatchNorm2d(768, eps=1e-05, momentum=0.1, affine=True, track_running_stats=True)
              (act): Act()
            )
          )
          (branch_3): Sequential(
            (0): AvgPool2d(kernel_size=7, stride=3, padding=3)
            (1): ConvX(
              (conv): Conv2d(768, 768, kernel_size=(3, 3), stride=(1, 1), padding=(1, 1), groups=768, bias=False)
              (norm): BatchNorm2d(768, eps=1e-05, momentum=0.1, affine=True, track_running_stats=True)
              (act): Act()
            )
          )
          (act): Act(
            (act): GELU(approximate='none')
          )
        )
        (2): ConvX(
          (conv): Conv2d(768, 768, kernel_size=(1, 1), stride=(1, 1), bias=False)
          (norm): BatchNorm2d(768, eps=1e-05, momentum=0.1, affine=True, track_running_stats=True)
          (act): Act()
        )
      )
    )
    (2): BottleNeck(
      (drop_path): DropPath(drop_prob=0.330)
      (ln): LayerNorm()
      (sblock_in): ConvX(
        (conv): Conv2d(768, 3072, kernel_size=(1, 1), stride=(1, 1), bias=False)
        (norm): BatchNorm2d(3072, eps=1e-05, momentum=0.1, affine=True, track_running_stats=True)
        (act): Act(
          (act): GELU(approximate='none')
        )
      )
      (sblock_dw): ConvX(
        (conv): Conv2d(1536, 1536, kernel_size=(3, 3), stride=(1, 1), padding=(1, 1), groups=1536, bias=False)
        (norm): BatchNorm2d(1536, eps=1e-05, momentum=0.1, affine=True, track_running_stats=True)
        (act): Act()
      )
      (sblock_proj): ConvX(
        (conv): Conv2d(1536, 768, kernel_size=(1, 1), stride=(1, 1), bias=False)
        (norm): BatchNorm2d(768, eps=1e-05, momentum=0.1, affine=True, track_running_stats=True)
        (act): Act()
      )
      (mblock): Sequential(
        (0): ConvX(
          (conv): Conv2d(768, 768, kernel_size=(1, 1), stride=(1, 1), bias=False)
          (norm): BatchNorm2d(768, eps=1e-05, momentum=0.1, affine=True, track_running_stats=True)
          (act): Act(
            (act): GELU(approximate='none')
          )
        )
        (1): PyramidConvX(
          (branch_1): Sequential(
            (0): AvgPool2d(kernel_size=3, stride=1, padding=1)
            (1): ConvX(
              (conv): Conv2d(768, 768, kernel_size=(3, 3), stride=(1, 1), padding=(1, 1), groups=768, bias=False)
              (norm): BatchNorm2d(768, eps=1e-05, momentum=0.1, affine=True, track_running_stats=True)
              (act): Act()
            )
          )
          (branch_2): Sequential(
            (0): AvgPool2d(kernel_size=5, stride=2, padding=2)
            (1): ConvX(
              (conv): Conv2d(768, 768, kernel_size=(3, 3), stride=(1, 1), padding=(1, 1), groups=768, bias=False)
              (norm): BatchNorm2d(768, eps=1e-05, momentum=0.1, affine=True, track_running_stats=True)
              (act): Act()
            )
          )
          (branch_3): Sequential(
            (0): AvgPool2d(kernel_size=7, stride=3, padding=3)
            (1): ConvX(
              (conv): Conv2d(768, 768, kernel_size=(3, 3), stride=(1, 1), padding=(1, 1), groups=768, bias=False)
              (norm): BatchNorm2d(768, eps=1e-05, momentum=0.1, affine=True, track_running_stats=True)
              (act): Act()
            )
          )
          (act): Act(
            (act): GELU(approximate='none')
          )
        )
        (2): ConvX(
          (conv): Conv2d(768, 768, kernel_size=(1, 1), stride=(1, 1), bias=False)
          (norm): BatchNorm2d(768, eps=1e-05, momentum=0.1, affine=True, track_running_stats=True)
          (act): Act()
        )
      )
    )
    (3): BottleNeck(
      (drop_path): DropPath(drop_prob=0.340)
      (ln): LayerNorm()
      (sblock_in): ConvX(
        (conv): Conv2d(768, 3072, kernel_size=(1, 1), stride=(1, 1), bias=False)
        (norm): BatchNorm2d(3072, eps=1e-05, momentum=0.1, affine=True, track_running_stats=True)
        (act): Act(
          (act): GELU(approximate='none')
        )
      )
      (sblock_dw): ConvX(
        (conv): Conv2d(1536, 1536, kernel_size=(3, 3), stride=(1, 1), padding=(1, 1), groups=1536, bias=False)
        (norm): BatchNorm2d(1536, eps=1e-05, momentum=0.1, affine=True, track_running_stats=True)
        (act): Act()
      )
      (sblock_proj): ConvX(
        (conv): Conv2d(1536, 768, kernel_size=(1, 1), stride=(1, 1), bias=False)
        (norm): BatchNorm2d(768, eps=1e-05, momentum=0.1, affine=True, track_running_stats=True)
        (act): Act()
      )
      (mblock): Sequential(
        (0): ConvX(
          (conv): Conv2d(768, 768, kernel_size=(1, 1), stride=(1, 1), bias=False)
          (norm): BatchNorm2d(768, eps=1e-05, momentum=0.1, affine=True, track_running_stats=True)
          (act): Act(
            (act): GELU(approximate='none')
          )
        )
        (1): PyramidConvX(
          (branch_1): Sequential(
            (0): AvgPool2d(kernel_size=3, stride=1, padding=1)
            (1): ConvX(
              (conv): Conv2d(768, 768, kernel_size=(3, 3), stride=(1, 1), padding=(1, 1), groups=768, bias=False)
              (norm): BatchNorm2d(768, eps=1e-05, momentum=0.1, affine=True, track_running_stats=True)
              (act): Act()
            )
          )
          (branch_2): Sequential(
            (0): AvgPool2d(kernel_size=5, stride=2, padding=2)
            (1): ConvX(
              (conv): Conv2d(768, 768, kernel_size=(3, 3), stride=(1, 1), padding=(1, 1), groups=768, bias=False)
              (norm): BatchNorm2d(768, eps=1e-05, momentum=0.1, affine=True, track_running_stats=True)
              (act): Act()
            )
          )
          (branch_3): Sequential(
            (0): AvgPool2d(kernel_size=7, stride=3, padding=3)
            (1): ConvX(
              (conv): Conv2d(768, 768, kernel_size=(3, 3), stride=(1, 1), padding=(1, 1), groups=768, bias=False)
              (norm): BatchNorm2d(768, eps=1e-05, momentum=0.1, affine=True, track_running_stats=True)
              (act): Act()
            )
          )
          (act): Act(
            (act): GELU(approximate='none')
          )
        )
        (2): ConvX(
          (conv): Conv2d(768, 768, kernel_size=(1, 1), stride=(1, 1), bias=False)
          (norm): BatchNorm2d(768, eps=1e-05, momentum=0.1, affine=True, track_running_stats=True)
          (act): Act()
        )
      )
    )
    (4): BottleNeck(
      (drop_path): DropPath(drop_prob=0.350)
      (ln): LayerNorm()
      (sblock_in): ConvX(
        (conv): Conv2d(768, 3072, kernel_size=(1, 1), stride=(1, 1), bias=False)
        (norm): BatchNorm2d(3072, eps=1e-05, momentum=0.1, affine=True, track_running_stats=True)
        (act): Act(
          (act): GELU(approximate='none')
        )
      )
      (sblock_dw): ConvX(
        (conv): Conv2d(1536, 1536, kernel_size=(3, 3), stride=(1, 1), padding=(1, 1), groups=1536, bias=False)
        (norm): BatchNorm2d(1536, eps=1e-05, momentum=0.1, affine=True, track_running_stats=True)
        (act): Act()
      )
      (sblock_proj): ConvX(
        (conv): Conv2d(1536, 768, kernel_size=(1, 1), stride=(1, 1), bias=False)
        (norm): BatchNorm2d(768, eps=1e-05, momentum=0.1, affine=True, track_running_stats=True)
        (act): Act()
      )
      (mblock): Sequential(
        (0): ConvX(
          (conv): Conv2d(768, 768, kernel_size=(1, 1), stride=(1, 1), bias=False)
          (norm): BatchNorm2d(768, eps=1e-05, momentum=0.1, affine=True, track_running_stats=True)
          (act): Act(
            (act): GELU(approximate='none')
          )
        )
        (1): PyramidConvX(
          (branch_1): Sequential(
            (0): AvgPool2d(kernel_size=3, stride=1, padding=1)
            (1): ConvX(
              (conv): Conv2d(768, 768, kernel_size=(3, 3), stride=(1, 1), padding=(1, 1), groups=768, bias=False)
              (norm): BatchNorm2d(768, eps=1e-05, momentum=0.1, affine=True, track_running_stats=True)
              (act): Act()
            )
          )
          (branch_2): Sequential(
            (0): AvgPool2d(kernel_size=5, stride=2, padding=2)
            (1): ConvX(
              (conv): Conv2d(768, 768, kernel_size=(3, 3), stride=(1, 1), padding=(1, 1), groups=768, bias=False)
              (norm): BatchNorm2d(768, eps=1e-05, momentum=0.1, affine=True, track_running_stats=True)
              (act): Act()
            )
          )
          (branch_3): Sequential(
            (0): AvgPool2d(kernel_size=7, stride=3, padding=3)
            (1): ConvX(
              (conv): Conv2d(768, 768, kernel_size=(3, 3), stride=(1, 1), padding=(1, 1), groups=768, bias=False)
              (norm): BatchNorm2d(768, eps=1e-05, momentum=0.1, affine=True, track_running_stats=True)
              (act): Act()
            )
          )
          (act): Act(
            (act): GELU(approximate='none')
          )
        )
        (2): ConvX(
          (conv): Conv2d(768, 768, kernel_size=(1, 1), stride=(1, 1), bias=False)
          (norm): BatchNorm2d(768, eps=1e-05, momentum=0.1, affine=True, track_running_stats=True)
          (act): Act()
        )
      )
    )
  )
  (head): ConvX(
    (conv): Conv2d(768, 1024, kernel_size=(1, 1), stride=(1, 1), bias=False)
    (norm): BatchNorm2d(1024, eps=1e-05, momentum=0.1, affine=True, track_running_stats=True)
    (act): Act(
      (act): GELU(approximate='none')
    )
  )
  (gap): AdaptiveAvgPool2d(output_size=1)
  (classifier): MlpHead(
    (fc1): Linear(in_features=1024, out_features=2048, bias=False)
    (norm): BatchNorm1d(2048, eps=1e-05, momentum=0.1, affine=True, track_running_stats=True)
    (act): Act(
      (act): GELU(approximate='none')
    )
    (drop): Dropout(p=0.2, inplace=False)
    (fc2): Linear(in_features=2048, out_features=1000, bias=False)
  )
)
number of params: 48903328
LR = 0.00400000
Batch size = 4096
Update frequent = 4
Number of training examples = 1281167
Number of training training per epoch = 312
Param groups = {
  "decay": {
    "weight_decay": 0.05,
    "params": [
      "first_conv.conv.weight",
      "layer1.0.mlp.0.conv.weight",
      "layer1.0.mlp.1.conv.weight",
      "layer1.0.mlp.2.conv.weight",
…
