…
Normalize(mean=tensor([0.4850, 0.4560, 0.4060]), std=tensor([0.2290, 0.2240, 0.2250]))
RandomErasing(p=0.25, mode=pixel, count=(1, 1))
---------------------------
reading from datapath /dev/shm/imagenet
Number of the class = 1000
Transform = 
Resize(size=256, interpolation=bicubic, max_size=None, antialias=True)
CenterCrop(size=(224, 224))
ToTensor()
Normalize(mean=(0.485, 0.456, 0.406), std=(0.229, 0.224, 0.225))
---------------------------
reading from datapath /dev/shm/imagenet
Number of the class = 1000
Sampler_train = <torch.utils.data.distributed.DistributedSampler object at 0x7f83a5b95410>
Mixup is activated!
Model = SPCNN(
  (first_conv): ConvX(
    (conv): Conv2d(3, 20, kernel_size=(3, 3), stride=(2, 2), padding=(1, 1), bias=False)
    (norm): BatchNorm2d(20, eps=1e-05, momentum=0.1, affine=True, track_running_stats=True)
    (act): Act(
      (act): GELU(approximate='none')
    )
  )
  (layer1): Sequential(
    (0): DownBlock(
      (mlp): Sequential(
        (0): ConvX(
          (conv): Conv2d(20, 120, kernel_size=(1, 1), stride=(1, 1), bias=False)
          (norm): BatchNorm2d(120, eps=1e-05, momentum=0.1, affine=True, track_running_stats=True)
          (act): Act(
            (act): GELU(approximate='none')
          )
        )
        (1): ConvX(
          (conv): Conv2d(120, 120, kernel_size=(3, 3), stride=(2, 2), padding=(1, 1), groups=120, bias=False)
          (norm): BatchNorm2d(120, eps=1e-05, momentum=0.1, affine=True, track_running_stats=True)
          (act): Act(
            (act): GELU(approximate='none')
          )
        )
        (2): ConvX(
          (conv): Conv2d(120, 40, kernel_size=(1, 1), stride=(1, 1), bias=False)
          (norm): BatchNorm2d(40, eps=1e-05, momentum=0.1, affine=True, track_running_stats=True)
          (act): Act()
        )
      )
      (skip): Sequential(
        (0): ConvX(
          (conv): Conv2d(20, 20, kernel_size=(3, 3), stride=(2, 2), padding=(1, 1), groups=20, bias=False)
          (norm): BatchNorm2d(20, eps=1e-05, momentum=0.1, affine=True, track_running_stats=True)
          (act): Act()
        )
        (1): ConvX(
          (conv): Conv2d(20, 40, kernel_size=(1, 1), stride=(1, 1), bias=False)
          (norm): BatchNorm2d(40, eps=1e-05, momentum=0.1, affine=True, track_running_stats=True)
          (act): Act()
        )
      )
      (drop_path): Identity()
    )
    (1): BottleNeck(
      (drop_path): DropPath(drop_prob=0.002)
      (ln): LayerNorm()
      (sblock_in): ConvX(
        (conv): Conv2d(40, 240, kernel_size=(1, 1), stride=(1, 1), bias=False)
        (norm): BatchNorm2d(240, eps=1e-05, momentum=0.1, affine=True, track_running_stats=True)
        (act): Act(
          (act): GELU(approximate='none')
        )
      )
      (sblock_dw): ConvX(
        (conv): Conv2d(120, 120, kernel_size=(3, 3), stride=(1, 1), padding=(1, 1), groups=120, bias=False)
        (norm): BatchNorm2d(120, eps=1e-05, momentum=0.1, affine=True, track_running_stats=True)
        (act): Act()
      )
      (sblock_proj): ConvX(
        (conv): Conv2d(120, 40, kernel_size=(1, 1), stride=(1, 1), bias=False)
        (norm): BatchNorm2d(40, eps=1e-05, momentum=0.1, affine=True, track_running_stats=True)
        (act): Act()
      )
      (mblock): Sequential(
        (0): ConvX(
          (conv): Conv2d(40, 40, kernel_size=(1, 1), stride=(1, 1), bias=False)
          (norm): BatchNorm2d(40, eps=1e-05, momentum=0.1, affine=True, track_running_stats=True)
          (act): Act(
            (act): GELU(approximate='none')
          )
        )
        (1): PyramidConvX(
          (branch_1): Sequential(
            (0): AvgPool2d(kernel_size=3, stride=1, padding=1)
            (1): ConvX(
              (conv): Conv2d(40, 40, kernel_size=(3, 3), stride=(1, 1), padding=(1, 1), groups=40, bias=False)
              (norm): BatchNorm2d(40, eps=1e-05, momentum=0.1, affine=True, track_running_stats=True)
              (act): Act()
            )
          )
          (branch_2): Sequential(
            (0): AvgPool2d(kernel_size=5, stride=2, padding=2)
            (1): ConvX(
              (conv): Conv2d(40, 40, kernel_size=(3, 3), stride=(1, 1), padding=(1, 1), groups=40, bias=False)
              (norm): BatchNorm2d(40, eps=1e-05, momentum=0.1, affine=True, track_running_stats=True)
              (act): Act()
            )
          )
          (branch_3): Sequential(
            (0): AvgPool2d(kernel_size=7, stride=3, padding=3)
            (1): ConvX(
              (conv): Conv2d(40, 40, kernel_size=(3, 3), stride=(1, 1), padding=(1, 1), groups=40, bias=False)
              (norm): BatchNorm2d(40, eps=1e-05, momentum=0.1, affine=True, track_running_stats=True)
              (act): Act()
            )
          )
          (act): Act(
            (act): GELU(approximate='none')
          )
        )
        (2): ConvX(
          (conv): Conv2d(40, 40, kernel_size=(1, 1), stride=(1, 1), bias=False)
          (norm): BatchNorm2d(40, eps=1e-05, momentum=0.1, affine=True, track_running_stats=True)
          (act): Act()
        )
      )
    )
    (2): BottleNeck(
      (drop_path): DropPath(drop_prob=0.004)
      (ln): LayerNorm()
      (sblock_in): ConvX(
        (conv): Conv2d(40, 240, kernel_size=(1, 1), stride=(1, 1), bias=False)
        (norm): BatchNorm2d(240, eps=1e-05, momentum=0.1, affine=True, track_running_stats=True)
        (act): Act(
          (act): GELU(approximate='none')
        )
      )
      (sblock_dw): ConvX(
        (conv): Conv2d(120, 120, kernel_size=(3, 3), stride=(1, 1), padding=(1, 1), groups=120, bias=False)
        (norm): BatchNorm2d(120, eps=1e-05, momentum=0.1, affine=True, track_running_stats=True)
        (act): Act()
      )
      (sblock_proj): ConvX(
        (conv): Conv2d(120, 40, kernel_size=(1, 1), stride=(1, 1), bias=False)
        (norm): BatchNorm2d(40, eps=1e-05, momentum=0.1, affine=True, track_running_stats=True)
        (act): Act()
      )
      (mblock): Sequential(
        (0): ConvX(
          (conv): Conv2d(40, 40, kernel_size=(1, 1), stride=(1, 1), bias=False)
          (norm): BatchNorm2d(40, eps=1e-05, momentum=0.1, affine=True, track_running_stats=True)
          (act): Act(
            (act): GELU(approximate='none')
          )
        )
        (1): PyramidConvX(
          (branch_1): Sequential(
            (0): AvgPool2d(kernel_size=3, stride=1, padding=1)
            (1): ConvX(
              (conv): Conv2d(40, 40, kernel_size=(3, 3), stride=(1, 1), padding=(1, 1), groups=40, bias=False)
              (norm): BatchNorm2d(40, eps=1e-05, momentum=0.1, affine=True, track_running_stats=True)
              (act): Act()
            )
          )
          (branch_2): Sequential(
            (0): AvgPool2d(kernel_size=5, stride=2, padding=2)
            (1): ConvX(
              (conv): Conv2d(40, 40, kernel_size=(3, 3), stride=(1, 1), padding=(1, 1), groups=40, bias=False)
              (norm): BatchNorm2d(40, eps=1e-05, momentum=0.1, affine=True, track_running_stats=True)
              (act): Act()
            )
          )
          (branch_3): Sequential(
            (0): AvgPool2d(kernel_size=7, stride=3, padding=3)
            (1): ConvX(
              (conv): Conv2d(40, 40, kernel_size=(3, 3), stride=(1, 1), padding=(1, 1), groups=40, bias=False)
              (norm): BatchNorm2d(40, eps=1e-05, momentum=0.1, affine=True, track_running_stats=True)
              (act): Act()
            )
          )
          (act): Act(
            (act): GELU(approximate='none')
          )
        )
        (2): ConvX(
          (conv): Conv2d(40, 40, kernel_size=(1, 1), stride=(1, 1), bias=False)
          (norm): BatchNorm2d(40, eps=1e-05, momentum=0.1, affine=True, track_running_stats=True)
          (act): Act()
        )
      )
    )
  )
  (layer2): Sequential(
    (0): DownBlock(
      (mlp): Sequential(
        (0): ConvX(
          (conv): Conv2d(40, 240, kernel_size=(1, 1), stride=(1, 1), bias=False)
          (norm): BatchNorm2d(240, eps=1e-05, momentum=0.1, affine=True, track_running_stats=True)
          (act): Act(
            (act): GELU(approximate='none')
          )
        )
        (1): ConvX(
          (conv): Conv2d(240, 240, kernel_size=(3, 3), stride=(2, 2), padding=(1, 1), groups=240, bias=False)
          (norm): BatchNorm2d(240, eps=1e-05, momentum=0.1, affine=True, track_running_stats=True)
          (act): Act(
            (act): GELU(approximate='none')
          )
        )
        (2): ConvX(
          (conv): Conv2d(240, 80, kernel_size=(1, 1), stride=(1, 1), bias=False)
          (norm): BatchNorm2d(80, eps=1e-05, momentum=0.1, affine=True, track_running_stats=True)
          (act): Act()
        )
      )
      (skip): Sequential(
        (0): ConvX(
          (conv): Conv2d(40, 40, kernel_size=(3, 3), stride=(2, 2), padding=(1, 1), groups=40, bias=False)
          (norm): BatchNorm2d(40, eps=1e-05, momentum=0.1, affine=True, track_running_stats=True)
          (act): Act()
        )
        (1): ConvX(
          (conv): Conv2d(40, 80, kernel_size=(1, 1), stride=(1, 1), bias=False)
          (norm): BatchNorm2d(80, eps=1e-05, momentum=0.1, affine=True, track_running_stats=True)
          (act): Act()
        )
      )
      (drop_path): DropPath(drop_prob=0.007)
    )
    (1): BottleNeck(
      (drop_path): DropPath(drop_prob=0.009)
      (ln): LayerNorm()
      (sblock_in): ConvX(
        (conv): Conv2d(80, 480, kernel_size=(1, 1), stride=(1, 1), bias=False)
        (norm): BatchNorm2d(480, eps=1e-05, momentum=0.1, affine=True, track_running_stats=True)
        (act): Act(
          (act): GELU(approximate='none')
        )
      )
      (sblock_dw): ConvX(
        (conv): Conv2d(240, 240, kernel_size=(3, 3), stride=(1, 1), padding=(1, 1), groups=240, bias=False)
        (norm): BatchNorm2d(240, eps=1e-05, momentum=0.1, affine=True, track_running_stats=True)
        (act): Act()
      )
      (sblock_proj): ConvX(
        (conv): Conv2d(240, 80, kernel_size=(1, 1), stride=(1, 1), bias=False)
        (norm): BatchNorm2d(80, eps=1e-05, momentum=0.1, affine=True, track_running_stats=True)
        (act): Act()
      )
      (mblock): Sequential(
        (0): ConvX(
          (conv): Conv2d(80, 80, kernel_size=(1, 1), stride=(1, 1), bias=False)
          (norm): BatchNorm2d(80, eps=1e-05, momentum=0.1, affine=True, track_running_stats=True)
          (act): Act(
            (act): GELU(approximate='none')
          )
        )
        (1): PyramidConvX(
          (branch_1): Sequential(
            (0): AvgPool2d(kernel_size=3, stride=1, padding=1)
            (1): ConvX(
              (conv): Conv2d(80, 80, kernel_size=(3, 3), stride=(1, 1), padding=(1, 1), groups=80, bias=False)
              (norm): BatchNorm2d(80, eps=1e-05, momentum=0.1, affine=True, track_running_stats=True)
              (act): Act()
            )
          )
          (branch_2): Sequential(
            (0): AvgPool2d(kernel_size=5, stride=2, padding=2)
            (1): ConvX(
              (conv): Conv2d(80, 80, kernel_size=(3, 3), stride=(1, 1), padding=(1, 1), groups=80, bias=False)
              (norm): BatchNorm2d(80, eps=1e-05, momentum=0.1, affine=True, track_running_stats=True)
              (act): Act()
            )
          )
          (branch_3): Sequential(
            (0): AvgPool2d(kernel_size=7, stride=3, padding=3)
            (1): ConvX(
              (conv): Conv2d(80, 80, kernel_size=(3, 3), stride=(1, 1), padding=(1, 1), groups=80, bias=False)
              (norm): BatchNorm2d(80, eps=1e-05, momentum=0.1, affine=True, track_running_stats=True)
              (act): Act()
            )
          )
          (act): Act(
            (act): GELU(approximate='none')
          )
        )
        (2): ConvX(
          (conv): Conv2d(80, 80, kernel_size=(1, 1), stride=(1, 1), bias=False)
          (norm): BatchNorm2d(80, eps=1e-05, momentum=0.1, affine=True, track_running_stats=True)
          (act): Act()
        )
      )
    )
    (2): BottleNeck(
      (drop_path): DropPath(drop_prob=0.011)
      (ln): LayerNorm()
      (sblock_in): ConvX(
        (conv): Conv2d(80, 480, kernel_size=(1, 1), stride=(1, 1), bias=False)
        (norm): BatchNorm2d(480, eps=1e-05, momentum=0.1, affine=True, track_running_stats=True)
        (act): Act(
          (act): GELU(approximate='none')
        )
      )
      (sblock_dw): ConvX(
        (conv): Conv2d(240, 240, kernel_size=(3, 3), stride=(1, 1), padding=(1, 1), groups=240, bias=False)
        (norm): BatchNorm2d(240, eps=1e-05, momentum=0.1, affine=True, track_running_stats=True)
        (act): Act()
      )
      (sblock_proj): ConvX(
        (conv): Conv2d(240, 80, kernel_size=(1, 1), stride=(1, 1), bias=False)
        (norm): BatchNorm2d(80, eps=1e-05, momentum=0.1, affine=True, track_running_stats=True)
        (act): Act()
      )
      (mblock): Sequential(
        (0): ConvX(
          (conv): Conv2d(80, 80, kernel_size=(1, 1), stride=(1, 1), bias=False)
          (norm): BatchNorm2d(80, eps=1e-05, momentum=0.1, affine=True, track_running_stats=True)
          (act): Act(
            (act): GELU(approximate='none')
          )
        )
        (1): PyramidConvX(
          (branch_1): Sequential(
            (0): AvgPool2d(kernel_size=3, stride=1, padding=1)
            (1): ConvX(
              (conv): Conv2d(80, 80, kernel_size=(3, 3), stride=(1, 1), padding=(1, 1), groups=80, bias=False)
              (norm): BatchNorm2d(80, eps=1e-05, momentum=0.1, affine=True, track_running_stats=True)
              (act): Act()
            )
          )
          (branch_2): Sequential(
            (0): AvgPool2d(kernel_size=5, stride=2, padding=2)
            (1): ConvX(
              (conv): Conv2d(80, 80, kernel_size=(3, 3), stride=(1, 1), padding=(1, 1), groups=80, bias=False)
              (norm): BatchNorm2d(80, eps=1e-05, momentum=0.1, affine=True, track_running_stats=True)
              (act): Act()
            )
          )
          (branch_3): Sequential(
            (0): AvgPool2d(kernel_size=7, stride=3, padding=3)
            (1): ConvX(
              (conv): Conv2d(80, 80, kernel_size=(3, 3), stride=(1, 1), padding=(1, 1), groups=80, bias=False)
              (norm): BatchNorm2d(80, eps=1e-05, momentum=0.1, affine=True, track_running_stats=True)
              (act): Act()
            )
          )
          (act): Act(
            (act): GELU(approximate='none')
          )
        )
        (2): ConvX(
          (conv): Conv2d(80, 80, kernel_size=(1, 1), stride=(1, 1), bias=False)
          (norm): BatchNorm2d(80, eps=1e-05, momentum=0.1, affine=True, track_running_stats=True)
          (act): Act()
        )
      )
    )
    (3): BottleNeck(
      (drop_path): DropPath(drop_prob=0.013)
      (ln): LayerNorm()
      (sblock_in): ConvX(
        (conv): Conv2d(80, 480, kernel_size=(1, 1), stride=(1, 1), bias=False)
        (norm): BatchNorm2d(480, eps=1e-05, momentum=0.1, affine=True, track_running_stats=True)
        (act): Act(
          (act): GELU(approximate='none')
        )
      )
      (sblock_dw): ConvX(
        (conv): Conv2d(240, 240, kernel_size=(3, 3), stride=(1, 1), padding=(1, 1), groups=240, bias=False)
        (norm): BatchNorm2d(240, eps=1e-05, momentum=0.1, affine=True, track_running_stats=True)
        (act): Act()
      )
      (sblock_proj): ConvX(
        (conv): Conv2d(240, 80, kernel_size=(1, 1), stride=(1, 1), bias=False)
        (norm): BatchNorm2d(80, eps=1e-05, momentum=0.1, affine=True, track_running_stats=True)
        (act): Act()
      )
      (mblock): Sequential(
        (0): ConvX(
          (conv): Conv2d(80, 80, kernel_size=(1, 1), stride=(1, 1), bias=False)
          (norm): BatchNorm2d(80, eps=1e-05, momentum=0.1, affine=True, track_running_stats=True)
          (act): Act(
            (act): GELU(approximate='none')
          )
        )
        (1): PyramidConvX(
          (branch_1): Sequential(
            (0): AvgPool2d(kernel_size=3, stride=1, padding=1)
            (1): ConvX(
              (conv): Conv2d(80, 80, kernel_size=(3, 3), stride=(1, 1), padding=(1, 1), groups=80, bias=False)
              (norm): BatchNorm2d(80, eps=1e-05, momentum=0.1, affine=True, track_running_stats=True)
              (act): Act()
            )
          )
          (branch_2): Sequential(
            (0): AvgPool2d(kernel_size=5, stride=2, padding=2)
            (1): ConvX(
              (conv): Conv2d(80, 80, kernel_size=(3, 3), stride=(1, 1), padding=(1, 1), groups=80, bias=False)
              (norm): BatchNorm2d(80, eps=1e-05, momentum=0.1, affine=True, track_running_stats=True)
              (act): Act()
            )
          )
          (branch_3): Sequential(
            (0): AvgPool2d(kernel_size=7, stride=3, padding=3)
            (1): ConvX(
              (conv): Conv2d(80, 80, kernel_size=(3, 3), stride=(1, 1), padding=(1, 1), groups=80, bias=False)
              (norm): BatchNorm2d(80, eps=1e-05, momentum=0.1, affine=True, track_running_stats=True)
              (act): Act()
            )
          )
          (act): Act(
            (act): GELU(approximate='none')
          )
        )
        (2): ConvX(
          (conv): Conv2d(80, 80, kernel_size=(1, 1), stride=(1, 1), bias=False)
          (norm): BatchNorm2d(80, eps=1e-05, momentum=0.1, affine=True, track_running_stats=True)
          (act): Act()
        )
      )
    )
    (4): BottleNeck(
      (drop_path): DropPath(drop_prob=0.015)
      (ln): LayerNorm()
      (sblock_in): ConvX(
        (conv): Conv2d(80, 480, kernel_size=(1, 1), stride=(1, 1), bias=False)
        (norm): BatchNorm2d(480, eps=1e-05, momentum=0.1, affine=True, track_running_stats=True)
        (act): Act(
          (act): GELU(approximate='none')
        )
      )
      (sblock_dw): ConvX(
        (conv): Conv2d(240, 240, kernel_size=(3, 3), stride=(1, 1), padding=(1, 1), groups=240, bias=False)
        (norm): BatchNorm2d(240, eps=1e-05, momentum=0.1, affine=True, track_running_stats=True)
        (act): Act()
      )
      (sblock_proj): ConvX(
        (conv): Conv2d(240, 80, kernel_size=(1, 1), stride=(1, 1), bias=False)
        (norm): BatchNorm2d(80, eps=1e-05, momentum=0.1, affine=True, track_running_stats=True)
        (act): Act()
      )
      (mblock): Sequential(
        (0): ConvX(
          (conv): Conv2d(80, 80, kernel_size=(1, 1), stride=(1, 1), bias=False)
          (norm): BatchNorm2d(80, eps=1e-05, momentum=0.1, affine=True, track_running_stats=True)
          (act): Act(
            (act): GELU(approximate='none')
          )
        )
        (1): PyramidConvX(
          (branch_1): Sequential(
            (0): AvgPool2d(kernel_size=3, stride=1, padding=1)
            (1): ConvX(
              (conv): Conv2d(80, 80, kernel_size=(3, 3), stride=(1, 1), padding=(1, 1), groups=80, bias=False)
              (norm): BatchNorm2d(80, eps=1e-05, momentum=0.1, affine=True, track_running_stats=True)
              (act): Act()
            )
          )
          (branch_2): Sequential(
            (0): AvgPool2d(kernel_size=5, stride=2, padding=2)
            (1): ConvX(
              (conv): Conv2d(80, 80, kernel_size=(3, 3), stride=(1, 1), padding=(1, 1), groups=80, bias=False)
              (norm): BatchNorm2d(80, eps=1e-05, momentum=0.1, affine=True, track_running_stats=True)
              (act): Act()
            )
          )
          (branch_3): Sequential(
            (0): AvgPool2d(kernel_size=7, stride=3, padding=3)
            (1): ConvX(
              (conv): Conv2d(80, 80, kernel_size=(3, 3), stride=(1, 1), padding=(1, 1), groups=80, bias=False)
              (norm): BatchNorm2d(80, eps=1e-05, momentum=0.1, affine=True, track_running_stats=True)
              (act): Act()
            )
          )
          (act): Act(
            (act): GELU(approximate='none')
          )
        )
        (2): ConvX(
          (conv): Conv2d(80, 80, kernel_size=(1, 1), stride=(1, 1), bias=False)
          (norm): BatchNorm2d(80, eps=1e-05, momentum=0.1, affine=True, track_running_stats=True)
          (act): Act()
        )
      )
    )
    (5): BottleNeck(
      (drop_path): DropPath(drop_prob=0.017)
      (ln): LayerNorm()
      (sblock_in): ConvX(
        (conv): Conv2d(80, 480, kernel_size=(1, 1), stride=(1, 1), bias=False)
        (norm): BatchNorm2d(480, eps=1e-05, momentum=0.1, affine=True, track_running_stats=True)
        (act): Act(
          (act): GELU(approximate='none')
        )
      )
      (sblock_dw): ConvX(
        (conv): Conv2d(240, 240, kernel_size=(3, 3), stride=(1, 1), padding=(1, 1), groups=240, bias=False)
        (norm): BatchNorm2d(240, eps=1e-05, momentum=0.1, affine=True, track_running_stats=True)
        (act): Act()
      )
      (sblock_proj): ConvX(
        (conv): Conv2d(240, 80, kernel_size=(1, 1), stride=(1, 1), bias=False)
        (norm): BatchNorm2d(80, eps=1e-05, momentum=0.1, affine=True, track_running_stats=True)
        (act): Act()
      )
      (mblock): Sequential(
        (0): ConvX(
          (conv): Conv2d(80, 80, kernel_size=(1, 1), stride=(1, 1), bias=False)
          (norm): BatchNorm2d(80, eps=1e-05, momentum=0.1, affine=True, track_running_stats=True)
          (act): Act(
            (act): GELU(approximate='none')
          )
        )
        (1): PyramidConvX(
          (branch_1): Sequential(
            (0): AvgPool2d(kernel_size=3, stride=1, padding=1)
            (1): ConvX(
              (conv): Conv2d(80, 80, kernel_size=(3, 3), stride=(1, 1), padding=(1, 1), groups=80, bias=False)
              (norm): BatchNorm2d(80, eps=1e-05, momentum=0.1, affine=True, track_running_stats=True)
              (act): Act()
            )
          )
          (branch_2): Sequential(
            (0): AvgPool2d(kernel_size=5, stride=2, padding=2)
            (1): ConvX(
              (conv): Conv2d(80, 80, kernel_size=(3, 3), stride=(1, 1), padding=(1, 1), groups=80, bias=False)
              (norm): BatchNorm2d(80, eps=1e-05, momentum=0.1, affine=True, track_running_stats=True)
              (act): Act()
            )
          )
          (branch_3): Sequential(
            (0): AvgPool2d(kernel_size=7, stride=3, padding=3)
            (1): ConvX(
              (conv): Conv2d(80, 80, kernel_size=(3, 3), stride=(1, 1), padding=(1, 1), groups=80, bias=False)
              (norm): BatchNorm2d(80, eps=1e-05, momentum=0.1, affine=True, track_running_stats=True)
              (act): Act()
            )
          )
          (act): Act(
            (act): GELU(approximate='none')
          )
        )
        (2): ConvX(
          (conv): Conv2d(80, 80, kernel_size=(1, 1), stride=(1, 1), bias=False)
          (norm): BatchNorm2d(80, eps=1e-05, momentum=0.1, affine=True, track_running_stats=True)
          (act): Act()
        )
      )
    )
  )
  (layer3): Sequential(
    (0): DownBlock(
      (mlp): Sequential(
        (0): ConvX(
          (conv): Conv2d(80, 480, kernel_size=(1, 1), stride=(1, 1), bias=False)
          (norm): BatchNorm2d(480, eps=1e-05, momentum=0.1, affine=True, track_running_stats=True)
          (act): Act(
            (act): GELU(approximate='none')
          )
        )
        (1): ConvX(
          (conv): Conv2d(480, 480, kernel_size=(3, 3), stride=(2, 2), padding=(1, 1), groups=480, bias=False)
          (norm): BatchNorm2d(480, eps=1e-05, momentum=0.1, affine=True, track_running_stats=True)
          (act): Act(
            (act): GELU(approximate='none')
          )
        )
        (2): ConvX(
          (conv): Conv2d(480, 160, kernel_size=(1, 1), stride=(1, 1), bias=False)
          (norm): BatchNorm2d(160, eps=1e-05, momentum=0.1, affine=True, track_running_stats=True)
          (act): Act()
        )
      )
      (skip): Sequential(
        (0): ConvX(
          (conv): Conv2d(80, 80, kernel_size=(3, 3), stride=(2, 2), padding=(1, 1), groups=80, bias=False)
          (norm): BatchNorm2d(80, eps=1e-05, momentum=0.1, affine=True, track_running_stats=True)
          (act): Act()
        )
        (1): ConvX(
          (conv): Conv2d(80, 160, kernel_size=(1, 1), stride=(1, 1), bias=False)
          (norm): BatchNorm2d(160, eps=1e-05, momentum=0.1, affine=True, track_running_stats=True)
          (act): Act()
        )
      )
      (drop_path): DropPath(drop_prob=0.020)
    )
    (1): BottleNeck(
      (drop_path): DropPath(drop_prob=0.022)
      (ln): LayerNorm()
      (sblock_in): ConvX(
        (conv): Conv2d(160, 960, kernel_size=(1, 1), stride=(1, 1), bias=False)
        (norm): BatchNorm2d(960, eps=1e-05, momentum=0.1, affine=True, track_running_stats=True)
        (act): Act(
          (act): GELU(approximate='none')
        )
      )
      (sblock_dw): ConvX(
        (conv): Conv2d(480, 480, kernel_size=(3, 3), stride=(1, 1), padding=(1, 1), groups=480, bias=False)
        (norm): BatchNorm2d(480, eps=1e-05, momentum=0.1, affine=True, track_running_stats=True)
        (act): Act()
      )
      (sblock_proj): ConvX(
        (conv): Conv2d(480, 160, kernel_size=(1, 1), stride=(1, 1), bias=False)
        (norm): BatchNorm2d(160, eps=1e-05, momentum=0.1, affine=True, track_running_stats=True)
        (act): Act()
      )
      (mblock): Sequential(
        (0): ConvX(
          (conv): Conv2d(160, 160, kernel_size=(1, 1), stride=(1, 1), bias=False)
          (norm): BatchNorm2d(160, eps=1e-05, momentum=0.1, affine=True, track_running_stats=True)
          (act): Act(
            (act): GELU(approximate='none')
          )
        )
        (1): PyramidConvX(
          (branch_1): Sequential(
            (0): AvgPool2d(kernel_size=3, stride=1, padding=1)
            (1): ConvX(
              (conv): Conv2d(160, 160, kernel_size=(3, 3), stride=(1, 1), padding=(1, 1), groups=160, bias=False)
              (norm): BatchNorm2d(160, eps=1e-05, momentum=0.1, affine=True, track_running_stats=True)
              (act): Act()
            )
          )
          (branch_2): Sequential(
            (0): AvgPool2d(kernel_size=5, stride=2, padding=2)
            (1): ConvX(
              (conv): Conv2d(160, 160, kernel_size=(3, 3), stride=(1, 1), padding=(1, 1), groups=160, bias=False)
              (norm): BatchNorm2d(160, eps=1e-05, momentum=0.1, affine=True, track_running_stats=True)
              (act): Act()
            )
          )
          (branch_3): Sequential(
            (0): AvgPool2d(kernel_size=7, stride=3, padding=3)
            (1): ConvX(
              (conv): Conv2d(160, 160, kernel_size=(3, 3), stride=(1, 1), padding=(1, 1), groups=160, bias=False)
              (norm): BatchNorm2d(160, eps=1e-05, momentum=0.1, affine=True, track_running_stats=True)
              (act): Act()
            )
          )
          (act): Act(
            (act): GELU(approximate='none')
          )
        )
        (2): ConvX(
          (conv): Conv2d(160, 160, kernel_size=(1, 1), stride=(1, 1), bias=False)
          (norm): BatchNorm2d(160, eps=1e-05, momentum=0.1, affine=True, track_running_stats=True)
          (act): Act()
        )
      )
    )
    (2): BottleNeck(
      (drop_path): DropPath(drop_prob=0.024)
      (ln): LayerNorm()
      (sblock_in): ConvX(
        (conv): Conv2d(160, 960, kernel_size=(1, 1), stride=(1, 1), bias=False)
        (norm): BatchNorm2d(960, eps=1e-05, momentum=0.1, affine=True, track_running_stats=True)
        (act): Act(
          (act): GELU(approximate='none')
        )
      )
      (sblock_dw): ConvX(
        (conv): Conv2d(480, 480, kernel_size=(3, 3), stride=(1, 1), padding=(1, 1), groups=480, bias=False)
        (norm): BatchNorm2d(480, eps=1e-05, momentum=0.1, affine=True, track_running_stats=True)
        (act): Act()
      )
      (sblock_proj): ConvX(
        (conv): Conv2d(480, 160, kernel_size=(1, 1), stride=(1, 1), bias=False)
        (norm): BatchNorm2d(160, eps=1e-05, momentum=0.1, affine=True, track_running_stats=True)
        (act): Act()
      )
      (mblock): Sequential(
        (0): ConvX(
          (conv): Conv2d(160, 160, kernel_size=(1, 1), stride=(1, 1), bias=False)
          (norm): BatchNorm2d(160, eps=1e-05, momentum=0.1, affine=True, track_running_stats=True)
          (act): Act(
            (act): GELU(approximate='none')
          )
        )
        (1): PyramidConvX(
          (branch_1): Sequential(
            (0): AvgPool2d(kernel_size=3, stride=1, padding=1)
            (1): ConvX(
              (conv): Conv2d(160, 160, kernel_size=(3, 3), stride=(1, 1), padding=(1, 1), groups=160, bias=False)
              (norm): BatchNorm2d(160, eps=1e-05, momentum=0.1, affine=True, track_running_stats=True)
              (act): Act()
            )
          )
          (branch_2): Sequential(
            (0): AvgPool2d(kernel_size=5, stride=2, padding=2)
            (1): ConvX(
              (conv): Conv2d(160, 160, kernel_size=(3, 3), stride=(1, 1), padding=(1, 1), groups=160, bias=False)
              (norm): BatchNorm2d(160, eps=1e-05, momentum=0.1, affine=True, track_running_stats=True)
              (act): Act()
            )
          )
          (branch_3): Sequential(
            (0): AvgPool2d(kernel_size=7, stride=3, padding=3)
            (1): ConvX(
              (conv): Conv2d(160, 160, kernel_size=(3, 3), stride=(1, 1), padding=(1, 1), groups=160, bias=False)
              (norm): BatchNorm2d(160, eps=1e-05, momentum=0.1, affine=True, track_running_stats=True)
              (act): Act()
            )
          )
          (act): Act(
            (act): GELU(approximate='none')
          )
        )
        (2): ConvX(
          (conv): Conv2d(160, 160, kernel_size=(1, 1), stride=(1, 1), bias=False)
          (norm): BatchNorm2d(160, eps=1e-05, momentum=0.1, affine=True, track_running_stats=True)
          (act): Act()
        )
      )
    )
    (3): BottleNeck(
      (drop_path): DropPath(drop_prob=0.026)
      (ln): LayerNorm()
      (sblock_in): ConvX(
        (conv): Conv2d(160, 960, kernel_size=(1, 1), stride=(1, 1), bias=False)
        (norm): BatchNorm2d(960, eps=1e-05, momentum=0.1, affine=True, track_running_stats=True)
        (act): Act(
          (act): GELU(approximate='none')
        )
      )
      (sblock_dw): ConvX(
        (conv): Conv2d(480, 480, kernel_size=(3, 3), stride=(1, 1), padding=(1, 1), groups=480, bias=False)
        (norm): BatchNorm2d(480, eps=1e-05, momentum=0.1, affine=True, track_running_stats=True)
        (act): Act()
      )
      (sblock_proj): ConvX(
        (conv): Conv2d(480, 160, kernel_size=(1, 1), stride=(1, 1), bias=False)
        (norm): BatchNorm2d(160, eps=1e-05, momentum=0.1, affine=True, track_running_stats=True)
        (act): Act()
      )
      (mblock): Sequential(
        (0): ConvX(
          (conv): Conv2d(160, 160, kernel_size=(1, 1), stride=(1, 1), bias=False)
          (norm): BatchNorm2d(160, eps=1e-05, momentum=0.1, affine=True, track_running_stats=True)
          (act): Act(
            (act): GELU(approximate='none')
          )
        )
        (1): PyramidConvX(
          (branch_1): Sequential(
            (0): AvgPool2d(kernel_size=3, stride=1, padding=1)
            (1): ConvX(
              (conv): Conv2d(160, 160, kernel_size=(3, 3), stride=(1, 1), padding=(1, 1), groups=160, bias=False)
              (norm): BatchNorm2d(160, eps=1e-05, momentum=0.1, affine=True, track_running_stats=True)
              (act): Act()
            )
          )
          (branch_2): Sequential(
            (0): AvgPool2d(kernel_size=5, stride=2, padding=2)
            (1): ConvX(
              (conv): Conv2d(160, 160, kernel_size=(3, 3), stride=(1, 1), padding=(1, 1), groups=160, bias=False)
              (norm): BatchNorm2d(160, eps=1e-05, momentum=0.1, affine=True, track_running_stats=True)
              (act): Act()
            )
          )
          (branch_3): Sequential(
            (0): AvgPool2d(kernel_size=7, stride=3, padding=3)
            (1): ConvX(
              (conv): Conv2d(160, 160, kernel_size=(3, 3), stride=(1, 1), padding=(1, 1), groups=160, bias=False)
              (norm): BatchNorm2d(160, eps=1e-05, momentum=0.1, affine=True, track_running_stats=True)
              (act): Act()
            )
          )
          (act): Act(
            (act): GELU(approximate='none')
          )
        )
        (2): ConvX(
          (conv): Conv2d(160, 160, kernel_size=(1, 1), stride=(1, 1), bias=False)
          (norm): BatchNorm2d(160, eps=1e-05, momentum=0.1, affine=True, track_running_stats=True)
          (act): Act()
        )
      )
    )
    (4): BottleNeck(
      (drop_path): DropPath(drop_prob=0.028)
      (ln): LayerNorm()
      (sblock_in): ConvX(
        (conv): Conv2d(160, 960, kernel_size=(1, 1), stride=(1, 1), bias=False)
        (norm): BatchNorm2d(960, eps=1e-05, momentum=0.1, affine=True, track_running_stats=True)
        (act): Act(
          (act): GELU(approximate='none')
        )
      )
      (sblock_dw): ConvX(
        (conv): Conv2d(480, 480, kernel_size=(3, 3), stride=(1, 1), padding=(1, 1), groups=480, bias=False)
        (norm): BatchNorm2d(480, eps=1e-05, momentum=0.1, affine=True, track_running_stats=True)
        (act): Act()
      )
      (sblock_proj): ConvX(
        (conv): Conv2d(480, 160, kernel_size=(1, 1), stride=(1, 1), bias=False)
        (norm): BatchNorm2d(160, eps=1e-05, momentum=0.1, affine=True, track_running_stats=True)
        (act): Act()
      )
      (mblock): Sequential(
        (0): ConvX(
          (conv): Conv2d(160, 160, kernel_size=(1, 1), stride=(1, 1), bias=False)
          (norm): BatchNorm2d(160, eps=1e-05, momentum=0.1, affine=True, track_running_stats=True)
          (act): Act(
            (act): GELU(approximate='none')
          )
        )
        (1): PyramidConvX(
          (branch_1): Sequential(
            (0): AvgPool2d(kernel_size=3, stride=1, padding=1)
            (1): ConvX(
              (conv): Conv2d(160, 160, kernel_size=(3, 3), stride=(1, 1), padding=(1, 1), groups=160, bias=False)
              (norm): BatchNorm2d(160, eps=1e-05, momentum=0.1, affine=True, track_running_stats=True)
              (act): Act()
            )
          )
          (branch_2): Sequential(
            (0): AvgPool2d(kernel_size=5, stride=2, padding=2)
            (1): ConvX(
              (conv): Conv2d(160, 160, kernel_size=(3, 3), stride=(1, 1), padding=(1, 1), groups=160, bias=False)
              (norm): BatchNorm2d(160, eps=1e-05, momentum=0.1, affine=True, track_running_stats=True)
              (act): Act()
            )
          )
          (branch_3): Sequential(
            (0): AvgPool2d(kernel_size=7, stride=3, padding=3)
            (1): ConvX(
              (conv): Conv2d(160, 160, kernel_size=(3, 3), stride=(1, 1), padding=(1, 1), groups=160, bias=False)
              (norm): BatchNorm2d(160, eps=1e-05, momentum=0.1, affine=True, track_running_stats=True)
              (act): Act()
            )
          )
          (act): Act(
            (act): GELU(approximate='none')
          )
        )
        (2): ConvX(
          (conv): Conv2d(160, 160, kernel_size=(1, 1), stride=(1, 1), bias=False)
          (norm): BatchNorm2d(160, eps=1e-05, momentum=0.1, affine=True, track_running_stats=True)
          (act): Act()
        )
      )
    )
    (5): BottleNeck(
      (drop_path): DropPath(drop_prob=0.030)
      (ln): LayerNorm()
      (sblock_in): ConvX(
        (conv): Conv2d(160, 960, kernel_size=(1, 1), stride=(1, 1), bias=False)
        (norm): BatchNorm2d(960, eps=1e-05, momentum=0.1, affine=True, track_running_stats=True)
        (act): Act(
          (act): GELU(approximate='none')
        )
      )
      (sblock_dw): ConvX(
        (conv): Conv2d(480, 480, kernel_size=(3, 3), stride=(1, 1), padding=(1, 1), groups=480, bias=False)
        (norm): BatchNorm2d(480, eps=1e-05, momentum=0.1, affine=True, track_running_stats=True)
        (act): Act()
      )
      (sblock_proj): ConvX(
        (conv): Conv2d(480, 160, kernel_size=(1, 1), stride=(1, 1), bias=False)
        (norm): BatchNorm2d(160, eps=1e-05, momentum=0.1, affine=True, track_running_stats=True)
        (act): Act()
      )
      (mblock): Sequential(
        (0): ConvX(
          (conv): Conv2d(160, 160, kernel_size=(1, 1), stride=(1, 1), bias=False)
          (norm): BatchNorm2d(160, eps=1e-05, momentum=0.1, affine=True, track_running_stats=True)
          (act): Act(
            (act): GELU(approximate='none')
          )
        )
        (1): PyramidConvX(
          (branch_1): Sequential(
            (0): AvgPool2d(kernel_size=3, stride=1, padding=1)
            (1): ConvX(
              (conv): Conv2d(160, 160, kernel_size=(3, 3), stride=(1, 1), padding=(1, 1), groups=160, bias=False)
              (norm): BatchNorm2d(160, eps=1e-05, momentum=0.1, affine=True, track_running_stats=True)
              (act): Act()
            )
          )
          (branch_2): Sequential(
            (0): AvgPool2d(kernel_size=5, stride=2, padding=2)
            (1): ConvX(
              (conv): Conv2d(160, 160, kernel_size=(3, 3), stride=(1, 1), padding=(1, 1), groups=160, bias=False)
              (norm): BatchNorm2d(160, eps=1e-05, momentum=0.1, affine=True, track_running_stats=True)
              (act): Act()
            )
          )
          (branch_3): Sequential(
            (0): AvgPool2d(kernel_size=7, stride=3, padding=3)
            (1): ConvX(
              (conv): Conv2d(160, 160, kernel_size=(3, 3), stride=(1, 1), padding=(1, 1), groups=160, bias=False)
              (norm): BatchNorm2d(160, eps=1e-05, momentum=0.1, affine=True, track_running_stats=True)
              (act): Act()
            )
          )
          (act): Act(
            (act): GELU(approximate='none')
          )
        )
        (2): ConvX(
          (conv): Conv2d(160, 160, kernel_size=(1, 1), stride=(1, 1), bias=False)
          (norm): BatchNorm2d(160, eps=1e-05, momentum=0.1, affine=True, track_running_stats=True)
          (act): Act()
        )
      )
    )
    (6): BottleNeck(
      (drop_path): DropPath(drop_prob=0.033)
      (ln): LayerNorm()
      (sblock_in): ConvX(
        (conv): Conv2d(160, 960, kernel_size=(1, 1), stride=(1, 1), bias=False)
        (norm): BatchNorm2d(960, eps=1e-05, momentum=0.1, affine=True, track_running_stats=True)
        (act): Act(
          (act): GELU(approximate='none')
        )
      )
      (sblock_dw): ConvX(
        (conv): Conv2d(480, 480, kernel_size=(3, 3), stride=(1, 1), padding=(1, 1), groups=480, bias=False)
        (norm): BatchNorm2d(480, eps=1e-05, momentum=0.1, affine=True, track_running_stats=True)
        (act): Act()
      )
      (sblock_proj): ConvX(
        (conv): Conv2d(480, 160, kernel_size=(1, 1), stride=(1, 1), bias=False)
        (norm): BatchNorm2d(160, eps=1e-05, momentum=0.1, affine=True, track_running_stats=True)
        (act): Act()
      )
      (mblock): Sequential(
        (0): ConvX(
          (conv): Conv2d(160, 160, kernel_size=(1, 1), stride=(1, 1), bias=False)
          (norm): BatchNorm2d(160, eps=1e-05, momentum=0.1, affine=True, track_running_stats=True)
          (act): Act(
            (act): GELU(approximate='none')
          )
        )
        (1): PyramidConvX(
          (branch_1): Sequential(
            (0): AvgPool2d(kernel_size=3, stride=1, padding=1)
            (1): ConvX(
              (conv): Conv2d(160, 160, kernel_size=(3, 3), stride=(1, 1), padding=(1, 1), groups=160, bias=False)
              (norm): BatchNorm2d(160, eps=1e-05, momentum=0.1, affine=True, track_running_stats=True)
              (act): Act()
            )
          )
          (branch_2): Sequential(
            (0): AvgPool2d(kernel_size=5, stride=2, padding=2)
            (1): ConvX(
              (conv): Conv2d(160, 160, kernel_size=(3, 3), stride=(1, 1), padding=(1, 1), groups=160, bias=False)
              (norm): BatchNorm2d(160, eps=1e-05, momentum=0.1, affine=True, track_running_stats=True)
              (act): Act()
            )
          )
          (branch_3): Sequential(
            (0): AvgPool2d(kernel_size=7, stride=3, padding=3)
            (1): ConvX(
              (conv): Conv2d(160, 160, kernel_size=(3, 3), stride=(1, 1), padding=(1, 1), groups=160, bias=False)
              (norm): BatchNorm2d(160, eps=1e-05, momentum=0.1, affine=True, track_running_stats=True)
              (act): Act()
            )
          )
          (act): Act(
            (act): GELU(approximate='none')
          )
        )
        (2): ConvX(
          (conv): Conv2d(160, 160, kernel_size=(1, 1), stride=(1, 1), bias=False)
          (norm): BatchNorm2d(160, eps=1e-05, momentum=0.1, affine=True, track_running_stats=True)
          (act): Act()
        )
      )
    )
    (7): BottleNeck(
      (drop_path): DropPath(drop_prob=0.035)
      (ln): LayerNorm()
      (sblock_in): ConvX(
        (conv): Conv2d(160, 960, kernel_size=(1, 1), stride=(1, 1), bias=False)
        (norm): BatchNorm2d(960, eps=1e-05, momentum=0.1, affine=True, track_running_stats=True)
        (act): Act(
          (act): GELU(approximate='none')
        )
      )
      (sblock_dw): ConvX(
        (conv): Conv2d(480, 480, kernel_size=(3, 3), stride=(1, 1), padding=(1, 1), groups=480, bias=False)
        (norm): BatchNorm2d(480, eps=1e-05, momentum=0.1, affine=True, track_running_stats=True)
        (act): Act()
      )
      (sblock_proj): ConvX(
        (conv): Conv2d(480, 160, kernel_size=(1, 1), stride=(1, 1), bias=False)
        (norm): BatchNorm2d(160, eps=1e-05, momentum=0.1, affine=True, track_running_stats=True)
        (act): Act()
      )
      (mblock): Sequential(
        (0): ConvX(
          (conv): Conv2d(160, 160, kernel_size=(1, 1), stride=(1, 1), bias=False)
          (norm): BatchNorm2d(160, eps=1e-05, momentum=0.1, affine=True, track_running_stats=True)
          (act): Act(
            (act): GELU(approximate='none')
          )
        )
        (1): PyramidConvX(
          (branch_1): Sequential(
            (0): AvgPool2d(kernel_size=3, stride=1, padding=1)
            (1): ConvX(
              (conv): Conv2d(160, 160, kernel_size=(3, 3), stride=(1, 1), padding=(1, 1), groups=160, bias=False)
              (norm): BatchNorm2d(160, eps=1e-05, momentum=0.1, affine=True, track_running_stats=True)
              (act): Act()
            )
          )
          (branch_2): Sequential(
            (0): AvgPool2d(kernel_size=5, stride=2, padding=2)
            (1): ConvX(
              (conv): Conv2d(160, 160, kernel_size=(3, 3), stride=(1, 1), padding=(1, 1), groups=160, bias=False)
              (norm): BatchNorm2d(160, eps=1e-05, momentum=0.1, affine=True, track_running_stats=True)
              (act): Act()
            )
          )
          (branch_3): Sequential(
            (0): AvgPool2d(kernel_size=7, stride=3, padding=3)
            (1): ConvX(
              (conv): Conv2d(160, 160, kernel_size=(3, 3), stride=(1, 1), padding=(1, 1), groups=160, bias=False)
              (norm): BatchNorm2d(160, eps=1e-05, momentum=0.1, affine=True, track_running_stats=True)
              (act): Act()
            )
          )
          (act): Act(
            (act): GELU(approximate='none')
          )
        )
        (2): ConvX(
          (conv): Conv2d(160, 160, kernel_size=(1, 1), stride=(1, 1), bias=False)
          (norm): BatchNorm2d(160, eps=1e-05, momentum=0.1, affine=True, track_running_stats=True)
          (act): Act()
        )
      )
    )
    (8): BottleNeck(
      (drop_path): DropPath(drop_prob=0.037)
      (ln): LayerNorm()
      (sblock_in): ConvX(
        (conv): Conv2d(160, 960, kernel_size=(1, 1), stride=(1, 1), bias=False)
        (norm): BatchNorm2d(960, eps=1e-05, momentum=0.1, affine=True, track_running_stats=True)
        (act): Act(
          (act): GELU(approximate='none')
        )
      )
      (sblock_dw): ConvX(
        (conv): Conv2d(480, 480, kernel_size=(3, 3), stride=(1, 1), padding=(1, 1), groups=480, bias=False)
        (norm): BatchNorm2d(480, eps=1e-05, momentum=0.1, affine=True, track_running_stats=True)
        (act): Act()
      )
      (sblock_proj): ConvX(
        (conv): Conv2d(480, 160, kernel_size=(1, 1), stride=(1, 1), bias=False)
        (norm): BatchNorm2d(160, eps=1e-05, momentum=0.1, affine=True, track_running_stats=True)
        (act): Act()
      )
      (mblock): Sequential(
        (0): ConvX(
          (conv): Conv2d(160, 160, kernel_size=(1, 1), stride=(1, 1), bias=False)
          (norm): BatchNorm2d(160, eps=1e-05, momentum=0.1, affine=True, track_running_stats=True)
          (act): Act(
            (act): GELU(approximate='none')
          )
        )
        (1): PyramidConvX(
          (branch_1): Sequential(
            (0): AvgPool2d(kernel_size=3, stride=1, padding=1)
            (1): ConvX(
              (conv): Conv2d(160, 160, kernel_size=(3, 3), stride=(1, 1), padding=(1, 1), groups=160, bias=False)
              (norm): BatchNorm2d(160, eps=1e-05, momentum=0.1, affine=True, track_running_stats=True)
              (act): Act()
            )
          )
          (branch_2): Sequential(
            (0): AvgPool2d(kernel_size=5, stride=2, padding=2)
            (1): ConvX(
              (conv): Conv2d(160, 160, kernel_size=(3, 3), stride=(1, 1), padding=(1, 1), groups=160, bias=False)
              (norm): BatchNorm2d(160, eps=1e-05, momentum=0.1, affine=True, track_running_stats=True)
              (act): Act()
            )
          )
          (branch_3): Sequential(
            (0): AvgPool2d(kernel_size=7, stride=3, padding=3)
            (1): ConvX(
              (conv): Conv2d(160, 160, kernel_size=(3, 3), stride=(1, 1), padding=(1, 1), groups=160, bias=False)
              (norm): BatchNorm2d(160, eps=1e-05, momentum=0.1, affine=True, track_running_stats=True)
              (act): Act()
            )
          )
          (act): Act(
            (act): GELU(approximate='none')
          )
        )
        (2): ConvX(
          (conv): Conv2d(160, 160, kernel_size=(1, 1), stride=(1, 1), bias=False)
          (norm): BatchNorm2d(160, eps=1e-05, momentum=0.1, affine=True, track_running_stats=True)
          (act): Act()
        )
      )
    )
    (9): BottleNeck(
      (drop_path): DropPath(drop_prob=0.039)
      (ln): LayerNorm()
      (sblock_in): ConvX(
        (conv): Conv2d(160, 960, kernel_size=(1, 1), stride=(1, 1), bias=False)
        (norm): BatchNorm2d(960, eps=1e-05, momentum=0.1, affine=True, track_running_stats=True)
        (act): Act(
          (act): GELU(approximate='none')
        )
      )
      (sblock_dw): ConvX(
        (conv): Conv2d(480, 480, kernel_size=(3, 3), stride=(1, 1), padding=(1, 1), groups=480, bias=False)
        (norm): BatchNorm2d(480, eps=1e-05, momentum=0.1, affine=True, track_running_stats=True)
        (act): Act()
      )
      (sblock_proj): ConvX(
        (conv): Conv2d(480, 160, kernel_size=(1, 1), stride=(1, 1), bias=False)
        (norm): BatchNorm2d(160, eps=1e-05, momentum=0.1, affine=True, track_running_stats=True)
        (act): Act()
      )
      (mblock): Sequential(
        (0): ConvX(
          (conv): Conv2d(160, 160, kernel_size=(1, 1), stride=(1, 1), bias=False)
          (norm): BatchNorm2d(160, eps=1e-05, momentum=0.1, affine=True, track_running_stats=True)
          (act): Act(
            (act): GELU(approximate='none')
          )
        )
        (1): PyramidConvX(
          (branch_1): Sequential(
            (0): AvgPool2d(kernel_size=3, stride=1, padding=1)
            (1): ConvX(
              (conv): Conv2d(160, 160, kernel_size=(3, 3), stride=(1, 1), padding=(1, 1), groups=160, bias=False)
              (norm): BatchNorm2d(160, eps=1e-05, momentum=0.1, affine=True, track_running_stats=True)
              (act): Act()
            )
          )
          (branch_2): Sequential(
            (0): AvgPool2d(kernel_size=5, stride=2, padding=2)
            (1): ConvX(
              (conv): Conv2d(160, 160, kernel_size=(3, 3), stride=(1, 1), padding=(1, 1), groups=160, bias=False)
              (norm): BatchNorm2d(160, eps=1e-05, momentum=0.1, affine=True, track_running_stats=True)
              (act): Act()
            )
          )
          (branch_3): Sequential(
            (0): AvgPool2d(kernel_size=7, stride=3, padding=3)
            (1): ConvX(
              (conv): Conv2d(160, 160, kernel_size=(3, 3), stride=(1, 1), padding=(1, 1), groups=160, bias=False)
              (norm): BatchNorm2d(160, eps=1e-05, momentum=0.1, affine=True, track_running_stats=True)
              (act): Act()
            )
          )
          (act): Act(
            (act): GELU(approximate='none')
          )
        )
        (2): ConvX(
          (conv): Conv2d(160, 160, kernel_size=(1, 1), stride=(1, 1), bias=False)
          (norm): BatchNorm2d(160, eps=1e-05, momentum=0.1, affine=True, track_running_stats=True)
          (act): Act()
        )
      )
    )
    (10): BottleNeck(
      (drop_path): DropPath(drop_prob=0.041)
      (ln): LayerNorm()
      (sblock_in): ConvX(
        (conv): Conv2d(160, 960, kernel_size=(1, 1), stride=(1, 1), bias=False)
        (norm): BatchNorm2d(960, eps=1e-05, momentum=0.1, affine=True, track_running_stats=True)
        (act): Act(
          (act): GELU(approximate='none')
        )
      )
      (sblock_dw): ConvX(
        (conv): Conv2d(480, 480, kernel_size=(3, 3), stride=(1, 1), padding=(1, 1), groups=480, bias=False)
        (norm): BatchNorm2d(480, eps=1e-05, momentum=0.1, affine=True, track_running_stats=True)
        (act): Act()
      )
      (sblock_proj): ConvX(
        (conv): Conv2d(480, 160, kernel_size=(1, 1), stride=(1, 1), bias=False)
        (norm): BatchNorm2d(160, eps=1e-05, momentum=0.1, affine=True, track_running_stats=True)
        (act): Act()
      )
      (mblock): Sequential(
        (0): ConvX(
          (conv): Conv2d(160, 160, kernel_size=(1, 1), stride=(1, 1), bias=False)
          (norm): BatchNorm2d(160, eps=1e-05, momentum=0.1, affine=True, track_running_stats=True)
          (act): Act(
            (act): GELU(approximate='none')
          )
        )
        (1): PyramidConvX(
          (branch_1): Sequential(
            (0): AvgPool2d(kernel_size=3, stride=1, padding=1)
            (1): ConvX(
              (conv): Conv2d(160, 160, kernel_size=(3, 3), stride=(1, 1), padding=(1, 1), groups=160, bias=False)
              (norm): BatchNorm2d(160, eps=1e-05, momentum=0.1, affine=True, track_running_stats=True)
              (act): Act()
            )
          )
          (branch_2): Sequential(
            (0): AvgPool2d(kernel_size=5, stride=2, padding=2)
            (1): ConvX(
              (conv): Conv2d(160, 160, kernel_size=(3, 3), stride=(1, 1), padding=(1, 1), groups=160, bias=False)
              (norm): BatchNorm2d(160, eps=1e-05, momentum=0.1, affine=True, track_running_stats=True)
              (act): Act()
            )
          )
          (branch_3): Sequential(
            (0): AvgPool2d(kernel_size=7, stride=3, padding=3)
            (1): ConvX(
              (conv): Conv2d(160, 160, kernel_size=(3, 3), stride=(1, 1), padding=(1, 1), groups=160, bias=False)
              (norm): BatchNorm2d(160, eps=1e-05, momentum=0.1, affine=True, track_running_stats=True)
              (act): Act()
            )
          )
          (act): Act(
            (act): GELU(approximate='none')
          )
        )
        (2): ConvX(
          (conv): Conv2d(160, 160, kernel_size=(1, 1), stride=(1, 1), bias=False)
          (norm): BatchNorm2d(160, eps=1e-05, momentum=0.1, affine=True, track_running_stats=True)
          (act): Act()
        )
      )
    )
    (11): BottleNeck(
      (drop_path): DropPath(drop_prob=0.043)
      (ln): LayerNorm()
      (sblock_in): ConvX(
        (conv): Conv2d(160, 960, kernel_size=(1, 1), stride=(1, 1), bias=False)
        (norm): BatchNorm2d(960, eps=1e-05, momentum=0.1, affine=True, track_running_stats=True)
        (act): Act(
          (act): GELU(approximate='none')
        )
      )
      (sblock_dw): ConvX(
        (conv): Conv2d(480, 480, kernel_size=(3, 3), stride=(1, 1), padding=(1, 1), groups=480, bias=False)
        (norm): BatchNorm2d(480, eps=1e-05, momentum=0.1, affine=True, track_running_stats=True)
        (act): Act()
      )
      (sblock_proj): ConvX(
        (conv): Conv2d(480, 160, kernel_size=(1, 1), stride=(1, 1), bias=False)
        (norm): BatchNorm2d(160, eps=1e-05, momentum=0.1, affine=True, track_running_stats=True)
        (act): Act()
      )
      (mblock): Sequential(
        (0): ConvX(
          (conv): Conv2d(160, 160, kernel_size=(1, 1), stride=(1, 1), bias=False)
          (norm): BatchNorm2d(160, eps=1e-05, momentum=0.1, affine=True, track_running_stats=True)
          (act): Act(
            (act): GELU(approximate='none')
          )
        )
        (1): PyramidConvX(
          (branch_1): Sequential(
            (0): AvgPool2d(kernel_size=3, stride=1, padding=1)
            (1): ConvX(
              (conv): Conv2d(160, 160, kernel_size=(3, 3), stride=(1, 1), padding=(1, 1), groups=160, bias=False)
              (norm): BatchNorm2d(160, eps=1e-05, momentum=0.1, affine=True, track_running_stats=True)
              (act): Act()
            )
          )
          (branch_2): Sequential(
            (0): AvgPool2d(kernel_size=5, stride=2, padding=2)
            (1): ConvX(
              (conv): Conv2d(160, 160, kernel_size=(3, 3), stride=(1, 1), padding=(1, 1), groups=160, bias=False)
              (norm): BatchNorm2d(160, eps=1e-05, momentum=0.1, affine=True, track_running_stats=True)
              (act): Act()
            )
          )
          (branch_3): Sequential(
            (0): AvgPool2d(kernel_size=7, stride=3, padding=3)
            (1): ConvX(
              (conv): Conv2d(160, 160, kernel_size=(3, 3), stride=(1, 1), padding=(1, 1), groups=160, bias=False)
              (norm): BatchNorm2d(160, eps=1e-05, momentum=0.1, affine=True, track_running_stats=True)
              (act): Act()
            )
          )
          (act): Act(
            (act): GELU(approximate='none')
          )
        )
        (2): ConvX(
          (conv): Conv2d(160, 160, kernel_size=(1, 1), stride=(1, 1), bias=False)
          (norm): BatchNorm2d(160, eps=1e-05, momentum=0.1, affine=True, track_running_stats=True)
          (act): Act()
        )
      )
    )
  )
  (layer4): Sequential(
    (0): DownBlock(
      (mlp): Sequential(
        (0): ConvX(
          (conv): Conv2d(160, 960, kernel_size=(1, 1), stride=(1, 1), bias=False)
          (norm): BatchNorm2d(960, eps=1e-05, momentum=0.1, affine=True, track_running_stats=True)
          (act): Act(
            (act): GELU(approximate='none')
          )
        )
        (1): ConvX(
          (conv): Conv2d(960, 960, kernel_size=(3, 3), stride=(2, 2), padding=(1, 1), groups=960, bias=False)
          (norm): BatchNorm2d(960, eps=1e-05, momentum=0.1, affine=True, track_running_stats=True)
          (act): Act(
            (act): GELU(approximate='none')
          )
        )
        (2): ConvX(
          (conv): Conv2d(960, 320, kernel_size=(1, 1), stride=(1, 1), bias=False)
          (norm): BatchNorm2d(320, eps=1e-05, momentum=0.1, affine=True, track_running_stats=True)
          (act): Act()
        )
      )
      (skip): Sequential(
        (0): ConvX(
          (conv): Conv2d(160, 160, kernel_size=(3, 3), stride=(2, 2), padding=(1, 1), groups=160, bias=False)
          (norm): BatchNorm2d(160, eps=1e-05, momentum=0.1, affine=True, track_running_stats=True)
          (act): Act()
        )
        (1): ConvX(
          (conv): Conv2d(160, 320, kernel_size=(1, 1), stride=(1, 1), bias=False)
          (norm): BatchNorm2d(320, eps=1e-05, momentum=0.1, affine=True, track_running_stats=True)
          (act): Act()
        )
      )
      (drop_path): DropPath(drop_prob=0.046)
    )
    (1): BottleNeck(
      (drop_path): DropPath(drop_prob=0.048)
      (ln): LayerNorm()
      (sblock_in): ConvX(
        (conv): Conv2d(320, 1920, kernel_size=(1, 1), stride=(1, 1), bias=False)
        (norm): BatchNorm2d(1920, eps=1e-05, momentum=0.1, affine=True, track_running_stats=True)
        (act): Act(
          (act): GELU(approximate='none')
        )
      )
      (sblock_dw): ConvX(
        (conv): Conv2d(960, 960, kernel_size=(3, 3), stride=(1, 1), padding=(1, 1), groups=960, bias=False)
        (norm): BatchNorm2d(960, eps=1e-05, momentum=0.1, affine=True, track_running_stats=True)
        (act): Act()
      )
      (sblock_proj): ConvX(
        (conv): Conv2d(960, 320, kernel_size=(1, 1), stride=(1, 1), bias=False)
        (norm): BatchNorm2d(320, eps=1e-05, momentum=0.1, affine=True, track_running_stats=True)
        (act): Act()
      )
      (mblock): Sequential(
        (0): ConvX(
          (conv): Conv2d(320, 320, kernel_size=(1, 1), stride=(1, 1), bias=False)
          (norm): BatchNorm2d(320, eps=1e-05, momentum=0.1, affine=True, track_running_stats=True)
          (act): Act(
            (act): GELU(approximate='none')
          )
        )
        (1): PyramidConvX(
          (branch_1): Sequential(
            (0): AvgPool2d(kernel_size=3, stride=1, padding=1)
            (1): ConvX(
              (conv): Conv2d(320, 320, kernel_size=(3, 3), stride=(1, 1), padding=(1, 1), groups=320, bias=False)
              (norm): BatchNorm2d(320, eps=1e-05, momentum=0.1, affine=True, track_running_stats=True)
              (act): Act()
            )
          )
          (branch_2): Sequential(
            (0): AvgPool2d(kernel_size=5, stride=2, padding=2)
            (1): ConvX(
              (conv): Conv2d(320, 320, kernel_size=(3, 3), stride=(1, 1), padding=(1, 1), groups=320, bias=False)
              (norm): BatchNorm2d(320, eps=1e-05, momentum=0.1, affine=True, track_running_stats=True)
              (act): Act()
            )
          )
          (branch_3): Sequential(
            (0): AvgPool2d(kernel_size=7, stride=3, padding=3)
            (1): ConvX(
              (conv): Conv2d(320, 320, kernel_size=(3, 3), stride=(1, 1), padding=(1, 1), groups=320, bias=False)
              (norm): BatchNorm2d(320, eps=1e-05, momentum=0.1, affine=True, track_running_stats=True)
              (act): Act()
            )
          )
          (act): Act(
            (act): GELU(approximate='none')
          )
        )
        (2): ConvX(
          (conv): Conv2d(320, 320, kernel_size=(1, 1), stride=(1, 1), bias=False)
          (norm): BatchNorm2d(320, eps=1e-05, momentum=0.1, affine=True, track_running_stats=True)
          (act): Act()
        )
      )
    )
    (2): BottleNeck(
      (drop_path): DropPath(drop_prob=0.050)
      (ln): LayerNorm()
      (sblock_in): ConvX(
        (conv): Conv2d(320, 1920, kernel_size=(1, 1), stride=(1, 1), bias=False)
        (norm): BatchNorm2d(1920, eps=1e-05, momentum=0.1, affine=True, track_running_stats=True)
        (act): Act(
          (act): GELU(approximate='none')
        )
      )
      (sblock_dw): ConvX(
        (conv): Conv2d(960, 960, kernel_size=(3, 3), stride=(1, 1), padding=(1, 1), groups=960, bias=False)
        (norm): BatchNorm2d(960, eps=1e-05, momentum=0.1, affine=True, track_running_stats=True)
        (act): Act()
      )
      (sblock_proj): ConvX(
        (conv): Conv2d(960, 320, kernel_size=(1, 1), stride=(1, 1), bias=False)
        (norm): BatchNorm2d(320, eps=1e-05, momentum=0.1, affine=True, track_running_stats=True)
        (act): Act()
      )
      (mblock): Sequential(
        (0): ConvX(
          (conv): Conv2d(320, 320, kernel_size=(1, 1), stride=(1, 1), bias=False)
          (norm): BatchNorm2d(320, eps=1e-05, momentum=0.1, affine=True, track_running_stats=True)
          (act): Act(
            (act): GELU(approximate='none')
          )
        )
        (1): PyramidConvX(
          (branch_1): Sequential(
            (0): AvgPool2d(kernel_size=3, stride=1, padding=1)
            (1): ConvX(
              (conv): Conv2d(320, 320, kernel_size=(3, 3), stride=(1, 1), padding=(1, 1), groups=320, bias=False)
              (norm): BatchNorm2d(320, eps=1e-05, momentum=0.1, affine=True, track_running_stats=True)
              (act): Act()
            )
          )
          (branch_2): Sequential(
            (0): AvgPool2d(kernel_size=5, stride=2, padding=2)
            (1): ConvX(
              (conv): Conv2d(320, 320, kernel_size=(3, 3), stride=(1, 1), padding=(1, 1), groups=320, bias=False)
              (norm): BatchNorm2d(320, eps=1e-05, momentum=0.1, affine=True, track_running_stats=True)
              (act): Act()
            )
          )
          (branch_3): Sequential(
            (0): AvgPool2d(kernel_size=7, stride=3, padding=3)
            (1): ConvX(
              (conv): Conv2d(320, 320, kernel_size=(3, 3), stride=(1, 1), padding=(1, 1), groups=320, bias=False)
              (norm): BatchNorm2d(320, eps=1e-05, momentum=0.1, affine=True, track_running_stats=True)
              (act): Act()
            )
          )
          (act): Act(
            (act): GELU(approximate='none')
          )
        )
        (2): ConvX(
          (conv): Conv2d(320, 320, kernel_size=(1, 1), stride=(1, 1), bias=False)
          (norm): BatchNorm2d(320, eps=1e-05, momentum=0.1, affine=True, track_running_stats=True)
          (act): Act()
        )
      )
    )
  )
  (head): ConvX(
    (conv): Conv2d(320, 1024, kernel_size=(1, 1), stride=(1, 1), bias=False)
    (norm): BatchNorm2d(1024, eps=1e-05, momentum=0.1, affine=True, track_running_stats=True)
    (act): Act(
      (act): GELU(approximate='none')
    )
  )
  (gap): AdaptiveAvgPool2d(output_size=1)
  (classifier): MlpHead(
    (fc1): Linear(in_features=1024, out_features=2048, bias=False)
    (norm): BatchNorm1d(2048, eps=1e-05, momentum=0.1, affine=True, track_running_stats=True)
    (act): Act(
      (act): GELU(approximate='none')
    )
    (drop): Dropout(p=0.2, inplace=False)
    (fc2): Linear(in_features=2048, out_features=1000, bias=False)
  )
)
number of params: 11168176
LR = 0.00400000
Batch size = 4096
Update frequent = 4
Number of training examples = 1281167
Number of training training per epoch = 312
Param groups = {
  "decay": {
    "weight_decay": 0.05,
    "params": [
      "first_conv.conv.weight",
      "layer1.0.mlp.0.conv.weight",
      "layer1.0.mlp.1.conv.weight",
      "layer1.0.mlp.2.conv.weight",
…
