…
Normalize(mean=tensor([0.4850, 0.4560, 0.4060]), std=tensor([0.2290, 0.2240, 0.2250]))
RandomErasing(p=0.25, mode=pixel, count=(1, 1))
---------------------------
reading from datapath /dev/shm/imagenet
Number of the class = 1000
Transform = 
Resize(size=256, interpolation=bicubic, max_size=None, antialias=True)
CenterCrop(size=(224, 224))
ToTensor()
Normalize(mean=(0.485, 0.456, 0.406), std=(0.229, 0.224, 0.225))
---------------------------
reading from datapath /dev/shm/imagenet
Number of the class = 1000
Sampler_train = <torch.utils.data.distributed.DistributedSampler object at 0x7fb0af8c89d0>
Mixup is activated!
Model = SPCNN(
  (first_conv): ConvX(
    (conv): Conv2d(3, 32, kernel_size=(3, 3), stride=(2, 2), padding=(1, 1), bias=False)
    (norm): BatchNorm2d(32, eps=1e-05, momentum=0.1, affine=True, track_running_stats=True)
    (act): Act(
      (act): GELU(approximate='none')
    )
  )
  (layer1): Sequential(
    (0): DownBlock(
      (mlp): Sequential(
        (0): ConvX(
          (conv): Conv2d(32, 192, kernel_size=(1, 1), stride=(1, 1), bias=False)
          (norm): BatchNorm2d(192, eps=1e-05, momentum=0.1, affine=True, track_running_stats=True)
          (act): Act(
            (act): GELU(approximate='none')
          )
        )
        (1): ConvX(
          (conv): Conv2d(192, 192, kernel_size=(3, 3), stride=(2, 2), padding=(1, 1), groups=192, bias=False)
          (norm): BatchNorm2d(192, eps=1e-05, momentum=0.1, affine=True, track_running_stats=True)
          (act): Act(
            (act): GELU(approximate='none')
          )
        )
        (2): ConvX(
          (conv): Conv2d(192, 64, kernel_size=(1, 1), stride=(1, 1), bias=False)
          (norm): BatchNorm2d(64, eps=1e-05, momentum=0.1, affine=True, track_running_stats=True)
          (act): Act()
        )
      )
      (skip): Sequential(
        (0): ConvX(
          (conv): Conv2d(32, 32, kernel_size=(3, 3), stride=(2, 2), padding=(1, 1), groups=32, bias=False)
          (norm): BatchNorm2d(32, eps=1e-05, momentum=0.1, affine=True, track_running_stats=True)
          (act): Act()
        )
        (1): ConvX(
          (conv): Conv2d(32, 64, kernel_size=(1, 1), stride=(1, 1), bias=False)
          (norm): BatchNorm2d(64, eps=1e-05, momentum=0.1, affine=True, track_running_stats=True)
          (act): Act()
        )
      )
      (drop_path): Identity()
    )
    (1): BottleNeck(
      (drop_path): DropPath(drop_prob=0.007)
      (ln): LayerNorm()
      (sblock_in): ConvX(
        (conv): Conv2d(64, 384, kernel_size=(1, 1), stride=(1, 1), bias=False)
        (norm): BatchNorm2d(384, eps=1e-05, momentum=0.1, affine=True, track_running_stats=True)
        (act): Act(
          (act): GELU(approximate='none')
        )
      )
      (sblock_dw): ConvX(
        (conv): Conv2d(192, 192, kernel_size=(3, 3), stride=(1, 1), padding=(1, 1), groups=192, bias=False)
        (norm): BatchNorm2d(192, eps=1e-05, momentum=0.1, affine=True, track_running_stats=True)
        (act): Act()
      )
      (sblock_proj): ConvX(
        (conv): Conv2d(192, 64, kernel_size=(1, 1), stride=(1, 1), bias=False)
        (norm): BatchNorm2d(64, eps=1e-05, momentum=0.1, affine=True, track_running_stats=True)
        (act): Act()
      )
      (mblock): Sequential(
        (0): ConvX(
          (conv): Conv2d(64, 64, kernel_size=(1, 1), stride=(1, 1), bias=False)
          (norm): BatchNorm2d(64, eps=1e-05, momentum=0.1, affine=True, track_running_stats=True)
          (act): Act(
            (act): GELU(approximate='none')
          )
        )
        (1): PyramidConvX(
          (branch_1): Sequential(
            (0): AvgPool2d(kernel_size=3, stride=1, padding=1)
            (1): ConvX(
              (conv): Conv2d(64, 64, kernel_size=(3, 3), stride=(1, 1), padding=(1, 1), groups=64, bias=False)
              (norm): BatchNorm2d(64, eps=1e-05, momentum=0.1, affine=True, track_running_stats=True)
              (act): Act()
            )
          )
          (branch_2): Sequential(
            (0): AvgPool2d(kernel_size=5, stride=2, padding=2)
            (1): ConvX(
              (conv): Conv2d(64, 64, kernel_size=(3, 3), stride=(1, 1), padding=(1, 1), groups=64, bias=False)
              (norm): BatchNorm2d(64, eps=1e-05, momentum=0.1, affine=True, track_running_stats=True)
              (act): Act()
            )
          )
          (branch_3): Sequential(
            (0): AvgPool2d(kernel_size=7, stride=3, padding=3)
            (1): ConvX(
              (conv): Conv2d(64, 64, kernel_size=(3, 3), stride=(1, 1), padding=(1, 1), groups=64, bias=False)
              (norm): BatchNorm2d(64, eps=1e-05, momentum=0.1, affine=True, track_running_stats=True)
              (act): Act()
            )
          )
          (act): Act(
            (act): GELU(approximate='none')
          )
        )
        (2): ConvX(
          (conv): Conv2d(64, 64, kernel_size=(1, 1), stride=(1, 1), bias=False)
          (norm): BatchNorm2d(64, eps=1e-05, momentum=0.1, affine=True, track_running_stats=True)
          (act): Act()
        )
      )
    )
    (2): BottleNeck(
      (drop_path): DropPath(drop_prob=0.014)
      (ln): LayerNorm()
      (sblock_in): ConvX(
        (conv): Conv2d(64, 384, kernel_size=(1, 1), stride=(1, 1), bias=False)
        (norm): BatchNorm2d(384, eps=1e-05, momentum=0.1, affine=True, track_running_stats=True)
        (act): Act(
          (act): GELU(approximate='none')
        )
      )
      (sblock_dw): ConvX(
        (conv): Conv2d(192, 192, kernel_size=(3, 3), stride=(1, 1), padding=(1, 1), groups=192, bias=False)
        (norm): BatchNorm2d(192, eps=1e-05, momentum=0.1, affine=True, track_running_stats=True)
        (act): Act()
      )
      (sblock_proj): ConvX(
        (conv): Conv2d(192, 64, kernel_size=(1, 1), stride=(1, 1), bias=False)
        (norm): BatchNorm2d(64, eps=1e-05, momentum=0.1, affine=True, track_running_stats=True)
        (act): Act()
      )
      (mblock): Sequential(
        (0): ConvX(
          (conv): Conv2d(64, 64, kernel_size=(1, 1), stride=(1, 1), bias=False)
          (norm): BatchNorm2d(64, eps=1e-05, momentum=0.1, affine=True, track_running_stats=True)
          (act): Act(
            (act): GELU(approximate='none')
          )
        )
        (1): PyramidConvX(
          (branch_1): Sequential(
            (0): AvgPool2d(kernel_size=3, stride=1, padding=1)
            (1): ConvX(
              (conv): Conv2d(64, 64, kernel_size=(3, 3), stride=(1, 1), padding=(1, 1), groups=64, bias=False)
              (norm): BatchNorm2d(64, eps=1e-05, momentum=0.1, affine=True, track_running_stats=True)
              (act): Act()
            )
          )
          (branch_2): Sequential(
            (0): AvgPool2d(kernel_size=5, stride=2, padding=2)
            (1): ConvX(
              (conv): Conv2d(64, 64, kernel_size=(3, 3), stride=(1, 1), padding=(1, 1), groups=64, bias=False)
              (norm): BatchNorm2d(64, eps=1e-05, momentum=0.1, affine=True, track_running_stats=True)
              (act): Act()
            )
          )
          (branch_3): Sequential(
            (0): AvgPool2d(kernel_size=7, stride=3, padding=3)
            (1): ConvX(
              (conv): Conv2d(64, 64, kernel_size=(3, 3), stride=(1, 1), padding=(1, 1), groups=64, bias=False)
              (norm): BatchNorm2d(64, eps=1e-05, momentum=0.1, affine=True, track_running_stats=True)
              (act): Act()
            )
          )
          (act): Act(
            (act): GELU(approximate='none')
          )
        )
        (2): ConvX(
          (conv): Conv2d(64, 64, kernel_size=(1, 1), stride=(1, 1), bias=False)
          (norm): BatchNorm2d(64, eps=1e-05, momentum=0.1, affine=True, track_running_stats=True)
          (act): Act()
        )
      )
    )
    (3): BottleNeck(
      (drop_path): DropPath(drop_prob=0.021)
      (ln): LayerNorm()
      (sblock_in): ConvX(
        (conv): Conv2d(64, 384, kernel_size=(1, 1), stride=(1, 1), bias=False)
        (norm): BatchNorm2d(384, eps=1e-05, momentum=0.1, affine=True, track_running_stats=True)
        (act): Act(
          (act): GELU(approximate='none')
        )
      )
      (sblock_dw): ConvX(
        (conv): Conv2d(192, 192, kernel_size=(3, 3), stride=(1, 1), padding=(1, 1), groups=192, bias=False)
        (norm): BatchNorm2d(192, eps=1e-05, momentum=0.1, affine=True, track_running_stats=True)
        (act): Act()
      )
      (sblock_proj): ConvX(
        (conv): Conv2d(192, 64, kernel_size=(1, 1), stride=(1, 1), bias=False)
        (norm): BatchNorm2d(64, eps=1e-05, momentum=0.1, affine=True, track_running_stats=True)
        (act): Act()
      )
      (mblock): Sequential(
        (0): ConvX(
          (conv): Conv2d(64, 64, kernel_size=(1, 1), stride=(1, 1), bias=False)
          (norm): BatchNorm2d(64, eps=1e-05, momentum=0.1, affine=True, track_running_stats=True)
          (act): Act(
            (act): GELU(approximate='none')
          )
        )
        (1): PyramidConvX(
          (branch_1): Sequential(
            (0): AvgPool2d(kernel_size=3, stride=1, padding=1)
            (1): ConvX(
              (conv): Conv2d(64, 64, kernel_size=(3, 3), stride=(1, 1), padding=(1, 1), groups=64, bias=False)
              (norm): BatchNorm2d(64, eps=1e-05, momentum=0.1, affine=True, track_running_stats=True)
              (act): Act()
            )
          )
          (branch_2): Sequential(
            (0): AvgPool2d(kernel_size=5, stride=2, padding=2)
            (1): ConvX(
              (conv): Conv2d(64, 64, kernel_size=(3, 3), stride=(1, 1), padding=(1, 1), groups=64, bias=False)
              (norm): BatchNorm2d(64, eps=1e-05, momentum=0.1, affine=True, track_running_stats=True)
              (act): Act()
            )
          )
          (branch_3): Sequential(
            (0): AvgPool2d(kernel_size=7, stride=3, padding=3)
            (1): ConvX(
              (conv): Conv2d(64, 64, kernel_size=(3, 3), stride=(1, 1), padding=(1, 1), groups=64, bias=False)
              (norm): BatchNorm2d(64, eps=1e-05, momentum=0.1, affine=True, track_running_stats=True)
              (act): Act()
            )
          )
          (act): Act(
            (act): GELU(approximate='none')
          )
        )
        (2): ConvX(
          (conv): Conv2d(64, 64, kernel_size=(1, 1), stride=(1, 1), bias=False)
          (norm): BatchNorm2d(64, eps=1e-05, momentum=0.1, affine=True, track_running_stats=True)
          (act): Act()
        )
      )
    )
  )
  (layer2): Sequential(
    (0): DownBlock(
      (mlp): Sequential(
        (0): ConvX(
          (conv): Conv2d(64, 384, kernel_size=(1, 1), stride=(1, 1), bias=False)
          (norm): BatchNorm2d(384, eps=1e-05, momentum=0.1, affine=True, track_running_stats=True)
          (act): Act(
            (act): GELU(approximate='none')
          )
        )
        (1): ConvX(
          (conv): Conv2d(384, 384, kernel_size=(3, 3), stride=(2, 2), padding=(1, 1), groups=384, bias=False)
          (norm): BatchNorm2d(384, eps=1e-05, momentum=0.1, affine=True, track_running_stats=True)
          (act): Act(
            (act): GELU(approximate='none')
          )
        )
        (2): ConvX(
          (conv): Conv2d(384, 128, kernel_size=(1, 1), stride=(1, 1), bias=False)
          (norm): BatchNorm2d(128, eps=1e-05, momentum=0.1, affine=True, track_running_stats=True)
          (act): Act()
        )
      )
      (skip): Sequential(
        (0): ConvX(
          (conv): Conv2d(64, 64, kernel_size=(3, 3), stride=(2, 2), padding=(1, 1), groups=64, bias=False)
          (norm): BatchNorm2d(64, eps=1e-05, momentum=0.1, affine=True, track_running_stats=True)
          (act): Act()
        )
        (1): ConvX(
          (conv): Conv2d(64, 128, kernel_size=(1, 1), stride=(1, 1), bias=False)
          (norm): BatchNorm2d(128, eps=1e-05, momentum=0.1, affine=True, track_running_stats=True)
          (act): Act()
        )
      )
      (drop_path): DropPath(drop_prob=0.028)
    )
    (1): BottleNeck(
      (drop_path): DropPath(drop_prob=0.034)
      (ln): LayerNorm()
      (sblock_in): ConvX(
        (conv): Conv2d(128, 768, kernel_size=(1, 1), stride=(1, 1), bias=False)
        (norm): BatchNorm2d(768, eps=1e-05, momentum=0.1, affine=True, track_running_stats=True)
        (act): Act(
          (act): GELU(approximate='none')
        )
      )
      (sblock_dw): ConvX(
        (conv): Conv2d(384, 384, kernel_size=(3, 3), stride=(1, 1), padding=(1, 1), groups=384, bias=False)
        (norm): BatchNorm2d(384, eps=1e-05, momentum=0.1, affine=True, track_running_stats=True)
        (act): Act()
      )
      (sblock_proj): ConvX(
        (conv): Conv2d(384, 128, kernel_size=(1, 1), stride=(1, 1), bias=False)
        (norm): BatchNorm2d(128, eps=1e-05, momentum=0.1, affine=True, track_running_stats=True)
        (act): Act()
      )
      (mblock): Sequential(
        (0): ConvX(
          (conv): Conv2d(128, 128, kernel_size=(1, 1), stride=(1, 1), bias=False)
          (norm): BatchNorm2d(128, eps=1e-05, momentum=0.1, affine=True, track_running_stats=True)
          (act): Act(
            (act): GELU(approximate='none')
          )
        )
        (1): PyramidConvX(
          (branch_1): Sequential(
            (0): AvgPool2d(kernel_size=3, stride=1, padding=1)
            (1): ConvX(
              (conv): Conv2d(128, 128, kernel_size=(3, 3), stride=(1, 1), padding=(1, 1), groups=128, bias=False)
              (norm): BatchNorm2d(128, eps=1e-05, momentum=0.1, affine=True, track_running_stats=True)
              (act): Act()
            )
          )
          (branch_2): Sequential(
            (0): AvgPool2d(kernel_size=5, stride=2, padding=2)
            (1): ConvX(
              (conv): Conv2d(128, 128, kernel_size=(3, 3), stride=(1, 1), padding=(1, 1), groups=128, bias=False)
              (norm): BatchNorm2d(128, eps=1e-05, momentum=0.1, affine=True, track_running_stats=True)
              (act): Act()
            )
          )
          (branch_3): Sequential(
            (0): AvgPool2d(kernel_size=7, stride=3, padding=3)
            (1): ConvX(
              (conv): Conv2d(128, 128, kernel_size=(3, 3), stride=(1, 1), padding=(1, 1), groups=128, bias=False)
              (norm): BatchNorm2d(128, eps=1e-05, momentum=0.1, affine=True, track_running_stats=True)
              (act): Act()
            )
          )
          (act): Act(
            (act): GELU(approximate='none')
          )
        )
        (2): ConvX(
          (conv): Conv2d(128, 128, kernel_size=(1, 1), stride=(1, 1), bias=False)
          (norm): BatchNorm2d(128, eps=1e-05, momentum=0.1, affine=True, track_running_stats=True)
          (act): Act()
        )
      )
    )
    (2): BottleNeck(
      (drop_path): DropPath(drop_prob=0.041)
      (ln): LayerNorm()
      (sblock_in): ConvX(
        (conv): Conv2d(128, 768, kernel_size=(1, 1), stride=(1, 1), bias=False)
        (norm): BatchNorm2d(768, eps=1e-05, momentum=0.1, affine=True, track_running_stats=True)
        (act): Act(
          (act): GELU(approximate='none')
        )
      )
      (sblock_dw): ConvX(
        (conv): Conv2d(384, 384, kernel_size=(3, 3), stride=(1, 1), padding=(1, 1), groups=384, bias=False)
        (norm): BatchNorm2d(384, eps=1e-05, momentum=0.1, affine=True, track_running_stats=True)
        (act): Act()
      )
      (sblock_proj): ConvX(
        (conv): Conv2d(384, 128, kernel_size=(1, 1), stride=(1, 1), bias=False)
        (norm): BatchNorm2d(128, eps=1e-05, momentum=0.1, affine=True, track_running_stats=True)
        (act): Act()
      )
      (mblock): Sequential(
        (0): ConvX(
          (conv): Conv2d(128, 128, kernel_size=(1, 1), stride=(1, 1), bias=False)
          (norm): BatchNorm2d(128, eps=1e-05, momentum=0.1, affine=True, track_running_stats=True)
          (act): Act(
            (act): GELU(approximate='none')
          )
        )
        (1): PyramidConvX(
          (branch_1): Sequential(
            (0): AvgPool2d(kernel_size=3, stride=1, padding=1)
            (1): ConvX(
              (conv): Conv2d(128, 128, kernel_size=(3, 3), stride=(1, 1), padding=(1, 1), groups=128, bias=False)
              (norm): BatchNorm2d(128, eps=1e-05, momentum=0.1, affine=True, track_running_stats=True)
              (act): Act()
            )
          )
          (branch_2): Sequential(
            (0): AvgPool2d(kernel_size=5, stride=2, padding=2)
            (1): ConvX(
              (conv): Conv2d(128, 128, kernel_size=(3, 3), stride=(1, 1), padding=(1, 1), groups=128, bias=False)
              (norm): BatchNorm2d(128, eps=1e-05, momentum=0.1, affine=True, track_running_stats=True)
              (act): Act()
            )
          )
          (branch_3): Sequential(
            (0): AvgPool2d(kernel_size=7, stride=3, padding=3)
            (1): ConvX(
              (conv): Conv2d(128, 128, kernel_size=(3, 3), stride=(1, 1), padding=(1, 1), groups=128, bias=False)
              (norm): BatchNorm2d(128, eps=1e-05, momentum=0.1, affine=True, track_running_stats=True)
              (act): Act()
            )
          )
          (act): Act(
            (act): GELU(approximate='none')
          )
        )
        (2): ConvX(
          (conv): Conv2d(128, 128, kernel_size=(1, 1), stride=(1, 1), bias=False)
          (norm): BatchNorm2d(128, eps=1e-05, momentum=0.1, affine=True, track_running_stats=True)
          (act): Act()
        )
      )
    )
    (3): BottleNeck(
      (drop_path): DropPath(drop_prob=0.048)
      (ln): LayerNorm()
      (sblock_in): ConvX(
        (conv): Conv2d(128, 768, kernel_size=(1, 1), stride=(1, 1), bias=False)
        (norm): BatchNorm2d(768, eps=1e-05, momentum=0.1, affine=True, track_running_stats=True)
        (act): Act(
          (act): GELU(approximate='none')
        )
      )
      (sblock_dw): ConvX(
        (conv): Conv2d(384, 384, kernel_size=(3, 3), stride=(1, 1), padding=(1, 1), groups=384, bias=False)
        (norm): BatchNorm2d(384, eps=1e-05, momentum=0.1, affine=True, track_running_stats=True)
        (act): Act()
      )
      (sblock_proj): ConvX(
        (conv): Conv2d(384, 128, kernel_size=(1, 1), stride=(1, 1), bias=False)
        (norm): BatchNorm2d(128, eps=1e-05, momentum=0.1, affine=True, track_running_stats=True)
        (act): Act()
      )
      (mblock): Sequential(
        (0): ConvX(
          (conv): Conv2d(128, 128, kernel_size=(1, 1), stride=(1, 1), bias=False)
          (norm): BatchNorm2d(128, eps=1e-05, momentum=0.1, affine=True, track_running_stats=True)
          (act): Act(
            (act): GELU(approximate='none')
          )
        )
        (1): PyramidConvX(
          (branch_1): Sequential(
            (0): AvgPool2d(kernel_size=3, stride=1, padding=1)
            (1): ConvX(
              (conv): Conv2d(128, 128, kernel_size=(3, 3), stride=(1, 1), padding=(1, 1), groups=128, bias=False)
              (norm): BatchNorm2d(128, eps=1e-05, momentum=0.1, affine=True, track_running_stats=True)
              (act): Act()
            )
          )
          (branch_2): Sequential(
            (0): AvgPool2d(kernel_size=5, stride=2, padding=2)
            (1): ConvX(
              (conv): Conv2d(128, 128, kernel_size=(3, 3), stride=(1, 1), padding=(1, 1), groups=128, bias=False)
              (norm): BatchNorm2d(128, eps=1e-05, momentum=0.1, affine=True, track_running_stats=True)
              (act): Act()
            )
          )
          (branch_3): Sequential(
            (0): AvgPool2d(kernel_size=7, stride=3, padding=3)
            (1): ConvX(
              (conv): Conv2d(128, 128, kernel_size=(3, 3), stride=(1, 1), padding=(1, 1), groups=128, bias=False)
              (norm): BatchNorm2d(128, eps=1e-05, momentum=0.1, affine=True, track_running_stats=True)
              (act): Act()
            )
          )
          (act): Act(
            (act): GELU(approximate='none')
          )
        )
        (2): ConvX(
          (conv): Conv2d(128, 128, kernel_size=(1, 1), stride=(1, 1), bias=False)
          (norm): BatchNorm2d(128, eps=1e-05, momentum=0.1, affine=True, track_running_stats=True)
          (act): Act()
        )
      )
    )
    (4): BottleNeck(
      (drop_path): DropPath(drop_prob=0.055)
      (ln): LayerNorm()
      (sblock_in): ConvX(
        (conv): Conv2d(128, 768, kernel_size=(1, 1), stride=(1, 1), bias=False)
        (norm): BatchNorm2d(768, eps=1e-05, momentum=0.1, affine=True, track_running_stats=True)
        (act): Act(
          (act): GELU(approximate='none')
        )
      )
      (sblock_dw): ConvX(
        (conv): Conv2d(384, 384, kernel_size=(3, 3), stride=(1, 1), padding=(1, 1), groups=384, bias=False)
        (norm): BatchNorm2d(384, eps=1e-05, momentum=0.1, affine=True, track_running_stats=True)
        (act): Act()
      )
      (sblock_proj): ConvX(
        (conv): Conv2d(384, 128, kernel_size=(1, 1), stride=(1, 1), bias=False)
        (norm): BatchNorm2d(128, eps=1e-05, momentum=0.1, affine=True, track_running_stats=True)
        (act): Act()
      )
      (mblock): Sequential(
        (0): ConvX(
          (conv): Conv2d(128, 128, kernel_size=(1, 1), stride=(1, 1), bias=False)
          (norm): BatchNorm2d(128, eps=1e-05, momentum=0.1, affine=True, track_running_stats=True)
          (act): Act(
            (act): GELU(approximate='none')
          )
        )
        (1): PyramidConvX(
          (branch_1): Sequential(
            (0): AvgPool2d(kernel_size=3, stride=1, padding=1)
            (1): ConvX(
              (conv): Conv2d(128, 128, kernel_size=(3, 3), stride=(1, 1), padding=(1, 1), groups=128, bias=False)
              (norm): BatchNorm2d(128, eps=1e-05, momentum=0.1, affine=True, track_running_stats=True)
              (act): Act()
            )
          )
          (branch_2): Sequential(
            (0): AvgPool2d(kernel_size=5, stride=2, padding=2)
            (1): ConvX(
              (conv): Conv2d(128, 128, kernel_size=(3, 3), stride=(1, 1), padding=(1, 1), groups=128, bias=False)
              (norm): BatchNorm2d(128, eps=1e-05, momentum=0.1, affine=True, track_running_stats=True)
              (act): Act()
            )
          )
          (branch_3): Sequential(
            (0): AvgPool2d(kernel_size=7, stride=3, padding=3)
            (1): ConvX(
              (conv): Conv2d(128, 128, kernel_size=(3, 3), stride=(1, 1), padding=(1, 1), groups=128, bias=False)
              (norm): BatchNorm2d(128, eps=1e-05, momentum=0.1, affine=True, track_running_stats=True)
              (act): Act()
            )
          )
          (act): Act(
            (act): GELU(approximate='none')
          )
        )
        (2): ConvX(
          (conv): Conv2d(128, 128, kernel_size=(1, 1), stride=(1, 1), bias=False)
          (norm): BatchNorm2d(128, eps=1e-05, momentum=0.1, affine=True, track_running_stats=True)
          (act): Act()
        )
      )
    )
    (5): BottleNeck(
      (drop_path): DropPath(drop_prob=0.062)
      (ln): LayerNorm()
      (sblock_in): ConvX(
        (conv): Conv2d(128, 768, kernel_size=(1, 1), stride=(1, 1), bias=False)
        (norm): BatchNorm2d(768, eps=1e-05, momentum=0.1, affine=True, track_running_stats=True)
        (act): Act(
          (act): GELU(approximate='none')
        )
      )
      (sblock_dw): ConvX(
        (conv): Conv2d(384, 384, kernel_size=(3, 3), stride=(1, 1), padding=(1, 1), groups=384, bias=False)
        (norm): BatchNorm2d(384, eps=1e-05, momentum=0.1, affine=True, track_running_stats=True)
        (act): Act()
      )
      (sblock_proj): ConvX(
        (conv): Conv2d(384, 128, kernel_size=(1, 1), stride=(1, 1), bias=False)
        (norm): BatchNorm2d(128, eps=1e-05, momentum=0.1, affine=True, track_running_stats=True)
        (act): Act()
      )
      (mblock): Sequential(
        (0): ConvX(
          (conv): Conv2d(128, 128, kernel_size=(1, 1), stride=(1, 1), bias=False)
          (norm): BatchNorm2d(128, eps=1e-05, momentum=0.1, affine=True, track_running_stats=True)
          (act): Act(
            (act): GELU(approximate='none')
          )
        )
        (1): PyramidConvX(
          (branch_1): Sequential(
            (0): AvgPool2d(kernel_size=3, stride=1, padding=1)
            (1): ConvX(
              (conv): Conv2d(128, 128, kernel_size=(3, 3), stride=(1, 1), padding=(1, 1), groups=128, bias=False)
              (norm): BatchNorm2d(128, eps=1e-05, momentum=0.1, affine=True, track_running_stats=True)
              (act): Act()
            )
          )
          (branch_2): Sequential(
            (0): AvgPool2d(kernel_size=5, stride=2, padding=2)
            (1): ConvX(
              (conv): Conv2d(128, 128, kernel_size=(3, 3), stride=(1, 1), padding=(1, 1), groups=128, bias=False)
              (norm): BatchNorm2d(128, eps=1e-05, momentum=0.1, affine=True, track_running_stats=True)
              (act): Act()
            )
          )
          (branch_3): Sequential(
            (0): AvgPool2d(kernel_size=7, stride=3, padding=3)
            (1): ConvX(
              (conv): Conv2d(128, 128, kernel_size=(3, 3), stride=(1, 1), padding=(1, 1), groups=128, bias=False)
              (norm): BatchNorm2d(128, eps=1e-05, momentum=0.1, affine=True, track_running_stats=True)
              (act): Act()
            )
          )
          (act): Act(
            (act): GELU(approximate='none')
          )
        )
        (2): ConvX(
          (conv): Conv2d(128, 128, kernel_size=(1, 1), stride=(1, 1), bias=False)
          (norm): BatchNorm2d(128, eps=1e-05, momentum=0.1, affine=True, track_running_stats=True)
          (act): Act()
        )
      )
    )
    (6): BottleNeck(
      (drop_path): DropPath(drop_prob=0.069)
      (ln): LayerNorm()
      (sblock_in): ConvX(
        (conv): Conv2d(128, 768, kernel_size=(1, 1), stride=(1, 1), bias=False)
        (norm): BatchNorm2d(768, eps=1e-05, momentum=0.1, affine=True, track_running_stats=True)
        (act): Act(
          (act): GELU(approximate='none')
        )
      )
      (sblock_dw): ConvX(
        (conv): Conv2d(384, 384, kernel_size=(3, 3), stride=(1, 1), padding=(1, 1), groups=384, bias=False)
        (norm): BatchNorm2d(384, eps=1e-05, momentum=0.1, affine=True, track_running_stats=True)
        (act): Act()
      )
      (sblock_proj): ConvX(
        (conv): Conv2d(384, 128, kernel_size=(1, 1), stride=(1, 1), bias=False)
        (norm): BatchNorm2d(128, eps=1e-05, momentum=0.1, affine=True, track_running_stats=True)
        (act): Act()
      )
      (mblock): Sequential(
        (0): ConvX(
          (conv): Conv2d(128, 128, kernel_size=(1, 1), stride=(1, 1), bias=False)
          (norm): BatchNorm2d(128, eps=1e-05, momentum=0.1, affine=True, track_running_stats=True)
          (act): Act(
            (act): GELU(approximate='none')
          )
        )
        (1): PyramidConvX(
          (branch_1): Sequential(
            (0): AvgPool2d(kernel_size=3, stride=1, padding=1)
            (1): ConvX(
              (conv): Conv2d(128, 128, kernel_size=(3, 3), stride=(1, 1), padding=(1, 1), groups=128, bias=False)
              (norm): BatchNorm2d(128, eps=1e-05, momentum=0.1, affine=True, track_running_stats=True)
              (act): Act()
            )
          )
          (branch_2): Sequential(
            (0): AvgPool2d(kernel_size=5, stride=2, padding=2)
            (1): ConvX(
              (conv): Conv2d(128, 128, kernel_size=(3, 3), stride=(1, 1), padding=(1, 1), groups=128, bias=False)
              (norm): BatchNorm2d(128, eps=1e-05, momentum=0.1, affine=True, track_running_stats=True)
              (act): Act()
            )
          )
          (branch_3): Sequential(
            (0): AvgPool2d(kernel_size=7, stride=3, padding=3)
            (1): ConvX(
              (conv): Conv2d(128, 128, kernel_size=(3, 3), stride=(1, 1), padding=(1, 1), groups=128, bias=False)
              (norm): BatchNorm2d(128, eps=1e-05, momentum=0.1, affine=True, track_running_stats=True)
              (act): Act()
            )
          )
          (act): Act(
            (act): GELU(approximate='none')
          )
        )
        (2): ConvX(
          (conv): Conv2d(128, 128, kernel_size=(1, 1), stride=(1, 1), bias=False)
          (norm): BatchNorm2d(128, eps=1e-05, momentum=0.1, affine=True, track_running_stats=True)
          (act): Act()
        )
      )
    )
  )
  (layer3): Sequential(
    (0): DownBlock(
      (mlp): Sequential(
        (0): ConvX(
          (conv): Conv2d(128, 768, kernel_size=(1, 1), stride=(1, 1), bias=False)
          (norm): BatchNorm2d(768, eps=1e-05, momentum=0.1, affine=True, track_running_stats=True)
          (act): Act(
            (act): GELU(approximate='none')
          )
        )
        (1): ConvX(
          (conv): Conv2d(768, 768, kernel_size=(3, 3), stride=(2, 2), padding=(1, 1), groups=768, bias=False)
          (norm): BatchNorm2d(768, eps=1e-05, momentum=0.1, affine=True, track_running_stats=True)
          (act): Act(
            (act): GELU(approximate='none')
          )
        )
        (2): ConvX(
          (conv): Conv2d(768, 256, kernel_size=(1, 1), stride=(1, 1), bias=False)
          (norm): BatchNorm2d(256, eps=1e-05, momentum=0.1, affine=True, track_running_stats=True)
          (act): Act()
        )
      )
      (skip): Sequential(
        (0): ConvX(
          (conv): Conv2d(128, 128, kernel_size=(3, 3), stride=(2, 2), padding=(1, 1), groups=128, bias=False)
          (norm): BatchNorm2d(128, eps=1e-05, momentum=0.1, affine=True, track_running_stats=True)
          (act): Act()
        )
        (1): ConvX(
          (conv): Conv2d(128, 256, kernel_size=(1, 1), stride=(1, 1), bias=False)
          (norm): BatchNorm2d(256, eps=1e-05, momentum=0.1, affine=True, track_running_stats=True)
          (act): Act()
        )
      )
      (drop_path): DropPath(drop_prob=0.076)
    )
    (1): BottleNeck(
      (drop_path): DropPath(drop_prob=0.083)
      (ln): LayerNorm()
      (sblock_in): ConvX(
        (conv): Conv2d(256, 1536, kernel_size=(1, 1), stride=(1, 1), bias=False)
        (norm): BatchNorm2d(1536, eps=1e-05, momentum=0.1, affine=True, track_running_stats=True)
        (act): Act(
          (act): GELU(approximate='none')
        )
      )
      (sblock_dw): ConvX(
        (conv): Conv2d(768, 768, kernel_size=(3, 3), stride=(1, 1), padding=(1, 1), groups=768, bias=False)
        (norm): BatchNorm2d(768, eps=1e-05, momentum=0.1, affine=True, track_running_stats=True)
        (act): Act()
      )
      (sblock_proj): ConvX(
        (conv): Conv2d(768, 256, kernel_size=(1, 1), stride=(1, 1), bias=False)
        (norm): BatchNorm2d(256, eps=1e-05, momentum=0.1, affine=True, track_running_stats=True)
        (act): Act()
      )
      (mblock): Sequential(
        (0): ConvX(
          (conv): Conv2d(256, 256, kernel_size=(1, 1), stride=(1, 1), bias=False)
          (norm): BatchNorm2d(256, eps=1e-05, momentum=0.1, affine=True, track_running_stats=True)
          (act): Act(
            (act): GELU(approximate='none')
          )
        )
        (1): PyramidConvX(
          (branch_1): Sequential(
            (0): AvgPool2d(kernel_size=3, stride=1, padding=1)
            (1): ConvX(
              (conv): Conv2d(256, 256, kernel_size=(3, 3), stride=(1, 1), padding=(1, 1), groups=256, bias=False)
              (norm): BatchNorm2d(256, eps=1e-05, momentum=0.1, affine=True, track_running_stats=True)
              (act): Act()
            )
          )
          (branch_2): Sequential(
            (0): AvgPool2d(kernel_size=5, stride=2, padding=2)
            (1): ConvX(
              (conv): Conv2d(256, 256, kernel_size=(3, 3), stride=(1, 1), padding=(1, 1), groups=256, bias=False)
              (norm): BatchNorm2d(256, eps=1e-05, momentum=0.1, affine=True, track_running_stats=True)
              (act): Act()
            )
          )
          (branch_3): Sequential(
            (0): AvgPool2d(kernel_size=7, stride=3, padding=3)
            (1): ConvX(
              (conv): Conv2d(256, 256, kernel_size=(3, 3), stride=(1, 1), padding=(1, 1), groups=256, bias=False)
              (norm): BatchNorm2d(256, eps=1e-05, momentum=0.1, affine=True, track_running_stats=True)
              (act): Act()
            )
          )
          (act): Act(
            (act): GELU(approximate='none')
          )
        )
        (2): ConvX(
          (conv): Conv2d(256, 256, kernel_size=(1, 1), stride=(1, 1), bias=False)
          (norm): BatchNorm2d(256, eps=1e-05, momentum=0.1, affine=True, track_running_stats=True)
          (act): Act()
        )
      )
    )
    (2): BottleNeck(
      (drop_path): DropPath(drop_prob=0.090)
      (ln): LayerNorm()
      (sblock_in): ConvX(
        (conv): Conv2d(256, 1536, kernel_size=(1, 1), stride=(1, 1), bias=False)
        (norm): BatchNorm2d(1536, eps=1e-05, momentum=0.1, affine=True, track_running_stats=True)
        (act): Act(
          (act): GELU(approximate='none')
        )
      )
      (sblock_dw): ConvX(
        (conv): Conv2d(768, 768, kernel_size=(3, 3), stride=(1, 1), padding=(1, 1), groups=768, bias=False)
        (norm): BatchNorm2d(768, eps=1e-05, momentum=0.1, affine=True, track_running_stats=True)
        (act): Act()
      )
      (sblock_proj): ConvX(
        (conv): Conv2d(768, 256, kernel_size=(1, 1), stride=(1, 1), bias=False)
        (norm): BatchNorm2d(256, eps=1e-05, momentum=0.1, affine=True, track_running_stats=True)
        (act): Act()
      )
      (mblock): Sequential(
        (0): ConvX(
          (conv): Conv2d(256, 256, kernel_size=(1, 1), stride=(1, 1), bias=False)
          (norm): BatchNorm2d(256, eps=1e-05, momentum=0.1, affine=True, track_running_stats=True)
          (act): Act(
            (act): GELU(approximate='none')
          )
        )
        (1): PyramidConvX(
          (branch_1): Sequential(
            (0): AvgPool2d(kernel_size=3, stride=1, padding=1)
            (1): ConvX(
              (conv): Conv2d(256, 256, kernel_size=(3, 3), stride=(1, 1), padding=(1, 1), groups=256, bias=False)
              (norm): BatchNorm2d(256, eps=1e-05, momentum=0.1, affine=True, track_running_stats=True)
              (act): Act()
            )
          )
          (branch_2): Sequential(
            (0): AvgPool2d(kernel_size=5, stride=2, padding=2)
            (1): ConvX(
              (conv): Conv2d(256, 256, kernel_size=(3, 3), stride=(1, 1), padding=(1, 1), groups=256, bias=False)
              (norm): BatchNorm2d(256, eps=1e-05, momentum=0.1, affine=True, track_running_stats=True)
              (act): Act()
            )
          )
          (branch_3): Sequential(
            (0): AvgPool2d(kernel_size=7, stride=3, padding=3)
            (1): ConvX(
              (conv): Conv2d(256, 256, kernel_size=(3, 3), stride=(1, 1), padding=(1, 1), groups=256, bias=False)
              (norm): BatchNorm2d(256, eps=1e-05, momentum=0.1, affine=True, track_running_stats=True)
              (act): Act()
            )
          )
          (act): Act(
            (act): GELU(approximate='none')
          )
        )
        (2): ConvX(
          (conv): Conv2d(256, 256, kernel_size=(1, 1), stride=(1, 1), bias=False)
          (norm): BatchNorm2d(256, eps=1e-05, momentum=0.1, affine=True, track_running_stats=True)
          (act): Act()
        )
      )
    )
    (3): BottleNeck(
      (drop_path): DropPath(drop_prob=0.097)
      (ln): LayerNorm()
      (sblock_in): ConvX(
        (conv): Conv2d(256, 1536, kernel_size=(1, 1), stride=(1, 1), bias=False)
        (norm): BatchNorm2d(1536, eps=1e-05, momentum=0.1, affine=True, track_running_stats=True)
        (act): Act(
          (act): GELU(approximate='none')
        )
      )
      (sblock_dw): ConvX(
        (conv): Conv2d(768, 768, kernel_size=(3, 3), stride=(1, 1), padding=(1, 1), groups=768, bias=False)
        (norm): BatchNorm2d(768, eps=1e-05, momentum=0.1, affine=True, track_running_stats=True)
        (act): Act()
      )
      (sblock_proj): ConvX(
        (conv): Conv2d(768, 256, kernel_size=(1, 1), stride=(1, 1), bias=False)
        (norm): BatchNorm2d(256, eps=1e-05, momentum=0.1, affine=True, track_running_stats=True)
        (act): Act()
      )
      (mblock): Sequential(
        (0): ConvX(
          (conv): Conv2d(256, 256, kernel_size=(1, 1), stride=(1, 1), bias=False)
          (norm): BatchNorm2d(256, eps=1e-05, momentum=0.1, affine=True, track_running_stats=True)
          (act): Act(
            (act): GELU(approximate='none')
          )
        )
        (1): PyramidConvX(
          (branch_1): Sequential(
            (0): AvgPool2d(kernel_size=3, stride=1, padding=1)
            (1): ConvX(
              (conv): Conv2d(256, 256, kernel_size=(3, 3), stride=(1, 1), padding=(1, 1), groups=256, bias=False)
              (norm): BatchNorm2d(256, eps=1e-05, momentum=0.1, affine=True, track_running_stats=True)
              (act): Act()
            )
          )
          (branch_2): Sequential(
            (0): AvgPool2d(kernel_size=5, stride=2, padding=2)
            (1): ConvX(
              (conv): Conv2d(256, 256, kernel_size=(3, 3), stride=(1, 1), padding=(1, 1), groups=256, bias=False)
              (norm): BatchNorm2d(256, eps=1e-05, momentum=0.1, affine=True, track_running_stats=True)
              (act): Act()
            )
          )
          (branch_3): Sequential(
            (0): AvgPool2d(kernel_size=7, stride=3, padding=3)
            (1): ConvX(
              (conv): Conv2d(256, 256, kernel_size=(3, 3), stride=(1, 1), padding=(1, 1), groups=256, bias=False)
              (norm): BatchNorm2d(256, eps=1e-05, momentum=0.1, affine=True, track_running_stats=True)
              (act): Act()
            )
          )
          (act): Act(
            (act): GELU(approximate='none')
          )
        )
        (2): ConvX(
          (conv): Conv2d(256, 256, kernel_size=(1, 1), stride=(1, 1), bias=False)
          (norm): BatchNorm2d(256, eps=1e-05, momentum=0.1, affine=True, track_running_stats=True)
          (act): Act()
        )
      )
    )
    (4): BottleNeck(
      (drop_path): DropPath(drop_prob=0.103)
      (ln): LayerNorm()
      (sblock_in): ConvX(
        (conv): Conv2d(256, 1536, kernel_size=(1, 1), stride=(1, 1), bias=False)
        (norm): BatchNorm2d(1536, eps=1e-05, momentum=0.1, affine=True, track_running_stats=True)
        (act): Act(
          (act): GELU(approximate='none')
        )
      )
      (sblock_dw): ConvX(
        (conv): Conv2d(768, 768, kernel_size=(3, 3), stride=(1, 1), padding=(1, 1), groups=768, bias=False)
        (norm): BatchNorm2d(768, eps=1e-05, momentum=0.1, affine=True, track_running_stats=True)
        (act): Act()
      )
      (sblock_proj): ConvX(
        (conv): Conv2d(768, 256, kernel_size=(1, 1), stride=(1, 1), bias=False)
        (norm): BatchNorm2d(256, eps=1e-05, momentum=0.1, affine=True, track_running_stats=True)
        (act): Act()
      )
      (mblock): Sequential(
        (0): ConvX(
          (conv): Conv2d(256, 256, kernel_size=(1, 1), stride=(1, 1), bias=False)
          (norm): BatchNorm2d(256, eps=1e-05, momentum=0.1, affine=True, track_running_stats=True)
          (act): Act(
            (act): GELU(approximate='none')
          )
        )
        (1): PyramidConvX(
          (branch_1): Sequential(
            (0): AvgPool2d(kernel_size=3, stride=1, padding=1)
            (1): ConvX(
              (conv): Conv2d(256, 256, kernel_size=(3, 3), stride=(1, 1), padding=(1, 1), groups=256, bias=False)
              (norm): BatchNorm2d(256, eps=1e-05, momentum=0.1, affine=True, track_running_stats=True)
              (act): Act()
            )
          )
          (branch_2): Sequential(
            (0): AvgPool2d(kernel_size=5, stride=2, padding=2)
            (1): ConvX(
              (conv): Conv2d(256, 256, kernel_size=(3, 3), stride=(1, 1), padding=(1, 1), groups=256, bias=False)
              (norm): BatchNorm2d(256, eps=1e-05, momentum=0.1, affine=True, track_running_stats=True)
              (act): Act()
            )
          )
          (branch_3): Sequential(
            (0): AvgPool2d(kernel_size=7, stride=3, padding=3)
            (1): ConvX(
              (conv): Conv2d(256, 256, kernel_size=(3, 3), stride=(1, 1), padding=(1, 1), groups=256, bias=False)
              (norm): BatchNorm2d(256, eps=1e-05, momentum=0.1, affine=True, track_running_stats=True)
              (act): Act()
            )
          )
          (act): Act(
            (act): GELU(approximate='none')
          )
        )
        (2): ConvX(
          (conv): Conv2d(256, 256, kernel_size=(1, 1), stride=(1, 1), bias=False)
          (norm): BatchNorm2d(256, eps=1e-05, momentum=0.1, affine=True, track_running_stats=True)
          (act): Act()
        )
      )
    )
    (5): BottleNeck(
      (drop_path): DropPath(drop_prob=0.110)
      (ln): LayerNorm()
      (sblock_in): ConvX(
        (conv): Conv2d(256, 1536, kernel_size=(1, 1), stride=(1, 1), bias=False)
        (norm): BatchNorm2d(1536, eps=1e-05, momentum=0.1, affine=True, track_running_stats=True)
        (act): Act(
          (act): GELU(approximate='none')
        )
      )
      (sblock_dw): ConvX(
        (conv): Conv2d(768, 768, kernel_size=(3, 3), stride=(1, 1), padding=(1, 1), groups=768, bias=False)
        (norm): BatchNorm2d(768, eps=1e-05, momentum=0.1, affine=True, track_running_stats=True)
        (act): Act()
      )
      (sblock_proj): ConvX(
        (conv): Conv2d(768, 256, kernel_size=(1, 1), stride=(1, 1), bias=False)
        (norm): BatchNorm2d(256, eps=1e-05, momentum=0.1, affine=True, track_running_stats=True)
        (act): Act()
      )
      (mblock): Sequential(
        (0): ConvX(
          (conv): Conv2d(256, 256, kernel_size=(1, 1), stride=(1, 1), bias=False)
          (norm): BatchNorm2d(256, eps=1e-05, momentum=0.1, affine=True, track_running_stats=True)
          (act): Act(
            (act): GELU(approximate='none')
          )
        )
        (1): PyramidConvX(
          (branch_1): Sequential(
            (0): AvgPool2d(kernel_size=3, stride=1, padding=1)
            (1): ConvX(
              (conv): Conv2d(256, 256, kernel_size=(3, 3), stride=(1, 1), padding=(1, 1), groups=256, bias=False)
              (norm): BatchNorm2d(256, eps=1e-05, momentum=0.1, affine=True, track_running_stats=True)
              (act): Act()
            )
          )
          (branch_2): Sequential(
            (0): AvgPool2d(kernel_size=5, stride=2, padding=2)
            (1): ConvX(
              (conv): Conv2d(256, 256, kernel_size=(3, 3), stride=(1, 1), padding=(1, 1), groups=256, bias=False)
              (norm): BatchNorm2d(256, eps=1e-05, momentum=0.1, affine=True, track_running_stats=True)
              (act): Act()
            )
          )
          (branch_3): Sequential(
            (0): AvgPool2d(kernel_size=7, stride=3, padding=3)
            (1): ConvX(
              (conv): Conv2d(256, 256, kernel_size=(3, 3), stride=(1, 1), padding=(1, 1), groups=256, bias=False)
              (norm): BatchNorm2d(256, eps=1e-05, momentum=0.1, affine=True, track_running_stats=True)
              (act): Act()
            )
          )
          (act): Act(
            (act): GELU(approximate='none')
          )
        )
        (2): ConvX(
          (conv): Conv2d(256, 256, kernel_size=(1, 1), stride=(1, 1), bias=False)
          (norm): BatchNorm2d(256, eps=1e-05, momentum=0.1, affine=True, track_running_stats=True)
          (act): Act()
        )
      )
    )
    (6): BottleNeck(
      (drop_path): DropPath(drop_prob=0.117)
      (ln): LayerNorm()
      (sblock_in): ConvX(
        (conv): Conv2d(256, 1536, kernel_size=(1, 1), stride=(1, 1), bias=False)
        (norm): BatchNorm2d(1536, eps=1e-05, momentum=0.1, affine=True, track_running_stats=True)
        (act): Act(
          (act): GELU(approximate='none')
        )
      )
      (sblock_dw): ConvX(
        (conv): Conv2d(768, 768, kernel_size=(3, 3), stride=(1, 1), padding=(1, 1), groups=768, bias=False)
        (norm): BatchNorm2d(768, eps=1e-05, momentum=0.1, affine=True, track_running_stats=True)
        (act): Act()
      )
      (sblock_proj): ConvX(
        (conv): Conv2d(768, 256, kernel_size=(1, 1), stride=(1, 1), bias=False)
        (norm): BatchNorm2d(256, eps=1e-05, momentum=0.1, affine=True, track_running_stats=True)
        (act): Act()
      )
      (mblock): Sequential(
        (0): ConvX(
          (conv): Conv2d(256, 256, kernel_size=(1, 1), stride=(1, 1), bias=False)
          (norm): BatchNorm2d(256, eps=1e-05, momentum=0.1, affine=True, track_running_stats=True)
          (act): Act(
            (act): GELU(approximate='none')
          )
        )
        (1): PyramidConvX(
          (branch_1): Sequential(
            (0): AvgPool2d(kernel_size=3, stride=1, padding=1)
            (1): ConvX(
              (conv): Conv2d(256, 256, kernel_size=(3, 3), stride=(1, 1), padding=(1, 1), groups=256, bias=False)
              (norm): BatchNorm2d(256, eps=1e-05, momentum=0.1, affine=True, track_running_stats=True)
              (act): Act()
            )
          )
          (branch_2): Sequential(
            (0): AvgPool2d(kernel_size=5, stride=2, padding=2)
            (1): ConvX(
              (conv): Conv2d(256, 256, kernel_size=(3, 3), stride=(1, 1), padding=(1, 1), groups=256, bias=False)
              (norm): BatchNorm2d(256, eps=1e-05, momentum=0.1, affine=True, track_running_stats=True)
              (act): Act()
            )
          )
          (branch_3): Sequential(
            (0): AvgPool2d(kernel_size=7, stride=3, padding=3)
            (1): ConvX(
              (conv): Conv2d(256, 256, kernel_size=(3, 3), stride=(1, 1), padding=(1, 1), groups=256, bias=False)
              (norm): BatchNorm2d(256, eps=1e-05, momentum=0.1, affine=True, track_running_stats=True)
              (act): Act()
            )
          )
          (act): Act(
            (act): GELU(approximate='none')
          )
        )
        (2): ConvX(
          (conv): Conv2d(256, 256, kernel_size=(1, 1), stride=(1, 1), bias=False)
          (norm): BatchNorm2d(256, eps=1e-05, momentum=0.1, affine=True, track_running_stats=True)
          (act): Act()
        )
      )
    )
    (7): BottleNeck(
      (drop_path): DropPath(drop_prob=0.124)
      (ln): LayerNorm()
      (sblock_in): ConvX(
        (conv): Conv2d(256, 1536, kernel_size=(1, 1), stride=(1, 1), bias=False)
        (norm): BatchNorm2d(1536, eps=1e-05, momentum=0.1, affine=True, track_running_stats=True)
        (act): Act(
          (act): GELU(approximate='none')
        )
      )
      (sblock_dw): ConvX(
        (conv): Conv2d(768, 768, kernel_size=(3, 3), stride=(1, 1), padding=(1, 1), groups=768, bias=False)
        (norm): BatchNorm2d(768, eps=1e-05, momentum=0.1, affine=True, track_running_stats=True)
        (act): Act()
      )
      (sblock_proj): ConvX(
        (conv): Conv2d(768, 256, kernel_size=(1, 1), stride=(1, 1), bias=False)
        (norm): BatchNorm2d(256, eps=1e-05, momentum=0.1, affine=True, track_running_stats=True)
        (act): Act()
      )
      (mblock): Sequential(
        (0): ConvX(
          (conv): Conv2d(256, 256, kernel_size=(1, 1), stride=(1, 1), bias=False)
          (norm): BatchNorm2d(256, eps=1e-05, momentum=0.1, affine=True, track_running_stats=True)
          (act): Act(
            (act): GELU(approximate='none')
          )
        )
        (1): PyramidConvX(
          (branch_1): Sequential(
            (0): AvgPool2d(kernel_size=3, stride=1, padding=1)
            (1): ConvX(
              (conv): Conv2d(256, 256, kernel_size=(3, 3), stride=(1, 1), padding=(1, 1), groups=256, bias=False)
              (norm): BatchNorm2d(256, eps=1e-05, momentum=0.1, affine=True, track_running_stats=True)
              (act): Act()
            )
          )
          (branch_2): Sequential(
            (0): AvgPool2d(kernel_size=5, stride=2, padding=2)
            (1): ConvX(
              (conv): Conv2d(256, 256, kernel_size=(3, 3), stride=(1, 1), padding=(1, 1), groups=256, bias=False)
              (norm): BatchNorm2d(256, eps=1e-05, momentum=0.1, affine=True, track_running_stats=True)
              (act): Act()
            )
          )
          (branch_3): Sequential(
            (0): AvgPool2d(kernel_size=7, stride=3, padding=3)
            (1): ConvX(
              (conv): Conv2d(256, 256, kernel_size=(3, 3), stride=(1, 1), padding=(1, 1), groups=256, bias=False)
              (norm): BatchNorm2d(256, eps=1e-05, momentum=0.1, affine=True, track_running_stats=True)
              (act): Act()
            )
          )
          (act): Act(
            (act): GELU(approximate='none')
          )
        )
        (2): ConvX(
          (conv): Conv2d(256, 256, kernel_size=(1, 1), stride=(1, 1), bias=False)
          (norm): BatchNorm2d(256, eps=1e-05, momentum=0.1, affine=True, track_running_stats=True)
          (act): Act()
        )
      )
    )
    (8): BottleNeck(
      (drop_path): DropPath(drop_prob=0.131)
      (ln): LayerNorm()
      (sblock_in): ConvX(
        (conv): Conv2d(256, 1536, kernel_size=(1, 1), stride=(1, 1), bias=False)
        (norm): BatchNorm2d(1536, eps=1e-05, momentum=0.1, affine=True, track_running_stats=True)
        (act): Act(
          (act): GELU(approximate='none')
        )
      )
      (sblock_dw): ConvX(
        (conv): Conv2d(768, 768, kernel_size=(3, 3), stride=(1, 1), padding=(1, 1), groups=768, bias=False)
        (norm): BatchNorm2d(768, eps=1e-05, momentum=0.1, affine=True, track_running_stats=True)
        (act): Act()
      )
      (sblock_proj): ConvX(
        (conv): Conv2d(768, 256, kernel_size=(1, 1), stride=(1, 1), bias=False)
        (norm): BatchNorm2d(256, eps=1e-05, momentum=0.1, affine=True, track_running_stats=True)
        (act): Act()
      )
      (mblock): Sequential(
        (0): ConvX(
          (conv): Conv2d(256, 256, kernel_size=(1, 1), stride=(1, 1), bias=False)
          (norm): BatchNorm2d(256, eps=1e-05, momentum=0.1, affine=True, track_running_stats=True)
          (act): Act(
            (act): GELU(approximate='none')
          )
        )
        (1): PyramidConvX(
          (branch_1): Sequential(
            (0): AvgPool2d(kernel_size=3, stride=1, padding=1)
            (1): ConvX(
              (conv): Conv2d(256, 256, kernel_size=(3, 3), stride=(1, 1), padding=(1, 1), groups=256, bias=False)
              (norm): BatchNorm2d(256, eps=1e-05, momentum=0.1, affine=True, track_running_stats=True)
              (act): Act()
            )
          )
          (branch_2): Sequential(
            (0): AvgPool2d(kernel_size=5, stride=2, padding=2)
            (1): ConvX(
              (conv): Conv2d(256, 256, kernel_size=(3, 3), stride=(1, 1), padding=(1, 1), groups=256, bias=False)
              (norm): BatchNorm2d(256, eps=1e-05, momentum=0.1, affine=True, track_running_stats=True)
              (act): Act()
            )
          )
          (branch_3): Sequential(
            (0): AvgPool2d(kernel_size=7, stride=3, padding=3)
            (1): ConvX(
              (conv): Conv2d(256, 256, kernel_size=(3, 3), stride=(1, 1), padding=(1, 1), groups=256, bias=False)
              (norm): BatchNorm2d(256, eps=1e-05, momentum=0.1, affine=True, track_running_stats=True)
              (act): Act()
            )
          )
          (act): Act(
            (act): GELU(approximate='none')
          )
        )
        (2): ConvX(
          (conv): Conv2d(256, 256, kernel_size=(1, 1), stride=(1, 1), bias=False)
          (norm): BatchNorm2d(256, eps=1e-05, momentum=0.1, affine=True, track_running_stats=True)
          (act): Act()
        )
      )
    )
    (9): BottleNeck(
      (drop_path): DropPath(drop_prob=0.138)
      (ln): LayerNorm()
      (sblock_in): ConvX(
        (conv): Conv2d(256, 1536, kernel_size=(1, 1), stride=(1, 1), bias=False)
        (norm): BatchNorm2d(1536, eps=1e-05, momentum=0.1, affine=True, track_running_stats=True)
        (act): Act(
          (act): GELU(approximate='none')
        )
      )
      (sblock_dw): ConvX(
        (conv): Conv2d(768, 768, kernel_size=(3, 3), stride=(1, 1), padding=(1, 1), groups=768, bias=False)
        (norm): BatchNorm2d(768, eps=1e-05, momentum=0.1, affine=True, track_running_stats=True)
        (act): Act()
      )
      (sblock_proj): ConvX(
        (conv): Conv2d(768, 256, kernel_size=(1, 1), stride=(1, 1), bias=False)
        (norm): BatchNorm2d(256, eps=1e-05, momentum=0.1, affine=True, track_running_stats=True)
        (act): Act()
      )
      (mblock): Sequential(
        (0): ConvX(
          (conv): Conv2d(256, 256, kernel_size=(1, 1), stride=(1, 1), bias=False)
          (norm): BatchNorm2d(256, eps=1e-05, momentum=0.1, affine=True, track_running_stats=True)
          (act): Act(
            (act): GELU(approximate='none')
          )
        )
        (1): PyramidConvX(
          (branch_1): Sequential(
            (0): AvgPool2d(kernel_size=3, stride=1, padding=1)
            (1): ConvX(
              (conv): Conv2d(256, 256, kernel_size=(3, 3), stride=(1, 1), padding=(1, 1), groups=256, bias=False)
              (norm): BatchNorm2d(256, eps=1e-05, momentum=0.1, affine=True, track_running_stats=True)
              (act): Act()
            )
          )
          (branch_2): Sequential(
            (0): AvgPool2d(kernel_size=5, stride=2, padding=2)
            (1): ConvX(
              (conv): Conv2d(256, 256, kernel_size=(3, 3), stride=(1, 1), padding=(1, 1), groups=256, bias=False)
              (norm): BatchNorm2d(256, eps=1e-05, momentum=0.1, affine=True, track_running_stats=True)
              (act): Act()
            )
          )
          (branch_3): Sequential(
            (0): AvgPool2d(kernel_size=7, stride=3, padding=3)
            (1): ConvX(
              (conv): Conv2d(256, 256, kernel_size=(3, 3), stride=(1, 1), padding=(1, 1), groups=256, bias=False)
              (norm): BatchNorm2d(256, eps=1e-05, momentum=0.1, affine=True, track_running_stats=True)
              (act): Act()
            )
          )
          (act): Act(
            (act): GELU(approximate='none')
          )
        )
        (2): ConvX(
          (conv): Conv2d(256, 256, kernel_size=(1, 1), stride=(1, 1), bias=False)
          (norm): BatchNorm2d(256, eps=1e-05, momentum=0.1, affine=True, track_running_stats=True)
          (act): Act()
        )
      )
    )
    (10): BottleNeck(
      (drop_path): DropPath(drop_prob=0.145)
      (ln): LayerNorm()
      (sblock_in): ConvX(
        (conv): Conv2d(256, 1536, kernel_size=(1, 1), stride=(1, 1), bias=False)
        (norm): BatchNorm2d(1536, eps=1e-05, momentum=0.1, affine=True, track_running_stats=True)
        (act): Act(
          (act): GELU(approximate='none')
        )
      )
      (sblock_dw): ConvX(
        (conv): Conv2d(768, 768, kernel_size=(3, 3), stride=(1, 1), padding=(1, 1), groups=768, bias=False)
        (norm): BatchNorm2d(768, eps=1e-05, momentum=0.1, affine=True, track_running_stats=True)
        (act): Act()
      )
      (sblock_proj): ConvX(
        (conv): Conv2d(768, 256, kernel_size=(1, 1), stride=(1, 1), bias=False)
        (norm): BatchNorm2d(256, eps=1e-05, momentum=0.1, affine=True, track_running_stats=True)
        (act): Act()
      )
      (mblock): Sequential(
        (0): ConvX(
          (conv): Conv2d(256, 256, kernel_size=(1, 1), stride=(1, 1), bias=False)
          (norm): BatchNorm2d(256, eps=1e-05, momentum=0.1, affine=True, track_running_stats=True)
          (act): Act(
            (act): GELU(approximate='none')
          )
        )
        (1): PyramidConvX(
          (branch_1): Sequential(
            (0): AvgPool2d(kernel_size=3, stride=1, padding=1)
            (1): ConvX(
              (conv): Conv2d(256, 256, kernel_size=(3, 3), stride=(1, 1), padding=(1, 1), groups=256, bias=False)
              (norm): BatchNorm2d(256, eps=1e-05, momentum=0.1, affine=True, track_running_stats=True)
              (act): Act()
            )
          )
          (branch_2): Sequential(
            (0): AvgPool2d(kernel_size=5, stride=2, padding=2)
            (1): ConvX(
              (conv): Conv2d(256, 256, kernel_size=(3, 3), stride=(1, 1), padding=(1, 1), groups=256, bias=False)
              (norm): BatchNorm2d(256, eps=1e-05, momentum=0.1, affine=True, track_running_stats=True)
              (act): Act()
            )
          )
          (branch_3): Sequential(
            (0): AvgPool2d(kernel_size=7, stride=3, padding=3)
            (1): ConvX(
              (conv): Conv2d(256, 256, kernel_size=(3, 3), stride=(1, 1), padding=(1, 1), groups=256, bias=False)
              (norm): BatchNorm2d(256, eps=1e-05, momentum=0.1, affine=True, track_running_stats=True)
              (act): Act()
            )
          )
          (act): Act(
            (act): GELU(approximate='none')
          )
        )
        (2): ConvX(
          (conv): Conv2d(256, 256, kernel_size=(1, 1), stride=(1, 1), bias=False)
          (norm): BatchNorm2d(256, eps=1e-05, momentum=0.1, affine=True, track_running_stats=True)
          (act): Act()
        )
      )
    )
    (11): BottleNeck(
      (drop_path): DropPath(drop_prob=0.152)
      (ln): LayerNorm()
      (sblock_in): ConvX(
        (conv): Conv2d(256, 1536, kernel_size=(1, 1), stride=(1, 1), bias=False)
        (norm): BatchNorm2d(1536, eps=1e-05, momentum=0.1, affine=True, track_running_stats=True)
        (act): Act(
          (act): GELU(approximate='none')
        )
      )
      (sblock_dw): ConvX(
        (conv): Conv2d(768, 768, kernel_size=(3, 3), stride=(1, 1), padding=(1, 1), groups=768, bias=False)
        (norm): BatchNorm2d(768, eps=1e-05, momentum=0.1, affine=True, track_running_stats=True)
        (act): Act()
      )
      (sblock_proj): ConvX(
        (conv): Conv2d(768, 256, kernel_size=(1, 1), stride=(1, 1), bias=False)
        (norm): BatchNorm2d(256, eps=1e-05, momentum=0.1, affine=True, track_running_stats=True)
        (act): Act()
      )
      (mblock): Sequential(
        (0): ConvX(
          (conv): Conv2d(256, 256, kernel_size=(1, 1), stride=(1, 1), bias=False)
          (norm): BatchNorm2d(256, eps=1e-05, momentum=0.1, affine=True, track_running_stats=True)
          (act): Act(
            (act): GELU(approximate='none')
          )
        )
        (1): PyramidConvX(
          (branch_1): Sequential(
            (0): AvgPool2d(kernel_size=3, stride=1, padding=1)
            (1): ConvX(
              (conv): Conv2d(256, 256, kernel_size=(3, 3), stride=(1, 1), padding=(1, 1), groups=256, bias=False)
              (norm): BatchNorm2d(256, eps=1e-05, momentum=0.1, affine=True, track_running_stats=True)
              (act): Act()
            )
          )
          (branch_2): Sequential(
            (0): AvgPool2d(kernel_size=5, stride=2, padding=2)
            (1): ConvX(
              (conv): Conv2d(256, 256, kernel_size=(3, 3), stride=(1, 1), padding=(1, 1), groups=256, bias=False)
              (norm): BatchNorm2d(256, eps=1e-05, momentum=0.1, affine=True, track_running_stats=True)
              (act): Act()
            )
          )
          (branch_3): Sequential(
            (0): AvgPool2d(kernel_size=7, stride=3, padding=3)
            (1): ConvX(
              (conv): Conv2d(256, 256, kernel_size=(3, 3), stride=(1, 1), padding=(1, 1), groups=256, bias=False)
              (norm): BatchNorm2d(256, eps=1e-05, momentum=0.1, affine=True, track_running_stats=True)
              (act): Act()
            )
          )
          (act): Act(
            (act): GELU(approximate='none')
          )
        )
        (2): ConvX(
          (conv): Conv2d(256, 256, kernel_size=(1, 1), stride=(1, 1), bias=False)
          (norm): BatchNorm2d(256, eps=1e-05, momentum=0.1, affine=True, track_running_stats=True)
          (act): Act()
        )
      )
    )
    (12): BottleNeck(
      (drop_path): DropPath(drop_prob=0.159)
      (ln): LayerNorm()
      (sblock_in): ConvX(
        (conv): Conv2d(256, 1536, kernel_size=(1, 1), stride=(1, 1), bias=False)
        (norm): BatchNorm2d(1536, eps=1e-05, momentum=0.1, affine=True, track_running_stats=True)
        (act): Act(
          (act): GELU(approximate='none')
        )
      )
      (sblock_dw): ConvX(
        (conv): Conv2d(768, 768, kernel_size=(3, 3), stride=(1, 1), padding=(1, 1), groups=768, bias=False)
        (norm): BatchNorm2d(768, eps=1e-05, momentum=0.1, affine=True, track_running_stats=True)
        (act): Act()
      )
      (sblock_proj): ConvX(
        (conv): Conv2d(768, 256, kernel_size=(1, 1), stride=(1, 1), bias=False)
        (norm): BatchNorm2d(256, eps=1e-05, momentum=0.1, affine=True, track_running_stats=True)
        (act): Act()
      )
      (mblock): Sequential(
        (0): ConvX(
          (conv): Conv2d(256, 256, kernel_size=(1, 1), stride=(1, 1), bias=False)
          (norm): BatchNorm2d(256, eps=1e-05, momentum=0.1, affine=True, track_running_stats=True)
          (act): Act(
            (act): GELU(approximate='none')
          )
        )
        (1): PyramidConvX(
          (branch_1): Sequential(
            (0): AvgPool2d(kernel_size=3, stride=1, padding=1)
            (1): ConvX(
              (conv): Conv2d(256, 256, kernel_size=(3, 3), stride=(1, 1), padding=(1, 1), groups=256, bias=False)
              (norm): BatchNorm2d(256, eps=1e-05, momentum=0.1, affine=True, track_running_stats=True)
              (act): Act()
            )
          )
          (branch_2): Sequential(
            (0): AvgPool2d(kernel_size=5, stride=2, padding=2)
            (1): ConvX(
              (conv): Conv2d(256, 256, kernel_size=(3, 3), stride=(1, 1), padding=(1, 1), groups=256, bias=False)
              (norm): BatchNorm2d(256, eps=1e-05, momentum=0.1, affine=True, track_running_stats=True)
              (act): Act()
            )
          )
          (branch_3): Sequential(
            (0): AvgPool2d(kernel_size=7, stride=3, padding=3)
            (1): ConvX(
              (conv): Conv2d(256, 256, kernel_size=(3, 3), stride=(1, 1), padding=(1, 1), groups=256, bias=False)
              (norm): BatchNorm2d(256, eps=1e-05, momentum=0.1, affine=True, track_running_stats=True)
              (act): Act()
            )
          )
          (act): Act(
            (act): GELU(approximate='none')
          )
        )
        (2): ConvX(
          (conv): Conv2d(256, 256, kernel_size=(1, 1), stride=(1, 1), bias=False)
          (norm): BatchNorm2d(256, eps=1e-05, momentum=0.1, affine=True, track_running_stats=True)
          (act): Act()
        )
      )
    )
    (13): BottleNeck(
      (drop_path): DropPath(drop_prob=0.166)
      (ln): LayerNorm()
      (sblock_in): ConvX(
        (conv): Conv2d(256, 1536, kernel_size=(1, 1), stride=(1, 1), bias=False)
        (norm): BatchNorm2d(1536, eps=1e-05, momentum=0.1, affine=True, track_running_stats=True)
        (act): Act(
          (act): GELU(approximate='none')
        )
      )
      (sblock_dw): ConvX(
        (conv): Conv2d(768, 768, kernel_size=(3, 3), stride=(1, 1), padding=(1, 1), groups=768, bias=False)
        (norm): BatchNorm2d(768, eps=1e-05, momentum=0.1, affine=True, track_running_stats=True)
        (act): Act()
      )
      (sblock_proj): ConvX(
        (conv): Conv2d(768, 256, kernel_size=(1, 1), stride=(1, 1), bias=False)
        (norm): BatchNorm2d(256, eps=1e-05, momentum=0.1, affine=True, track_running_stats=True)
        (act): Act()
      )
      (mblock): Sequential(
        (0): ConvX(
          (conv): Conv2d(256, 256, kernel_size=(1, 1), stride=(1, 1), bias=False)
          (norm): BatchNorm2d(256, eps=1e-05, momentum=0.1, affine=True, track_running_stats=True)
          (act): Act(
            (act): GELU(approximate='none')
          )
        )
        (1): PyramidConvX(
          (branch_1): Sequential(
            (0): AvgPool2d(kernel_size=3, stride=1, padding=1)
            (1): ConvX(
              (conv): Conv2d(256, 256, kernel_size=(3, 3), stride=(1, 1), padding=(1, 1), groups=256, bias=False)
              (norm): BatchNorm2d(256, eps=1e-05, momentum=0.1, affine=True, track_running_stats=True)
              (act): Act()
            )
          )
          (branch_2): Sequential(
            (0): AvgPool2d(kernel_size=5, stride=2, padding=2)
            (1): ConvX(
              (conv): Conv2d(256, 256, kernel_size=(3, 3), stride=(1, 1), padding=(1, 1), groups=256, bias=False)
              (norm): BatchNorm2d(256, eps=1e-05, momentum=0.1, affine=True, track_running_stats=True)
              (act): Act()
            )
          )
          (branch_3): Sequential(
            (0): AvgPool2d(kernel_size=7, stride=3, padding=3)
            (1): ConvX(
              (conv): Conv2d(256, 256, kernel_size=(3, 3), stride=(1, 1), padding=(1, 1), groups=256, bias=False)
              (norm): BatchNorm2d(256, eps=1e-05, momentum=0.1, affine=True, track_running_stats=True)
              (act): Act()
            )
          )
          (act): Act(
            (act): GELU(approximate='none')
          )
        )
        (2): ConvX(
          (conv): Conv2d(256, 256, kernel_size=(1, 1), stride=(1, 1), bias=False)
          (norm): BatchNorm2d(256, eps=1e-05, momentum=0.1, affine=True, track_running_stats=True)
          (act): Act()
        )
      )
    )
    (14): BottleNeck(
      (drop_path): DropPath(drop_prob=0.172)
      (ln): LayerNorm()
      (sblock_in): ConvX(
        (conv): Conv2d(256, 1536, kernel_size=(1, 1), stride=(1, 1), bias=False)
        (norm): BatchNorm2d(1536, eps=1e-05, momentum=0.1, affine=True, track_running_stats=True)
        (act): Act(
          (act): GELU(approximate='none')
        )
      )
      (sblock_dw): ConvX(
        (conv): Conv2d(768, 768, kernel_size=(3, 3), stride=(1, 1), padding=(1, 1), groups=768, bias=False)
        (norm): BatchNorm2d(768, eps=1e-05, momentum=0.1, affine=True, track_running_stats=True)
        (act): Act()
      )
      (sblock_proj): ConvX(
        (conv): Conv2d(768, 256, kernel_size=(1, 1), stride=(1, 1), bias=False)
        (norm): BatchNorm2d(256, eps=1e-05, momentum=0.1, affine=True, track_running_stats=True)
        (act): Act()
      )
      (mblock): Sequential(
        (0): ConvX(
          (conv): Conv2d(256, 256, kernel_size=(1, 1), stride=(1, 1), bias=False)
          (norm): BatchNorm2d(256, eps=1e-05, momentum=0.1, affine=True, track_running_stats=True)
          (act): Act(
            (act): GELU(approximate='none')
          )
        )
        (1): PyramidConvX(
          (branch_1): Sequential(
            (0): AvgPool2d(kernel_size=3, stride=1, padding=1)
            (1): ConvX(
              (conv): Conv2d(256, 256, kernel_size=(3, 3), stride=(1, 1), padding=(1, 1), groups=256, bias=False)
              (norm): BatchNorm2d(256, eps=1e-05, momentum=0.1, affine=True, track_running_stats=True)
              (act): Act()
            )
          )
          (branch_2): Sequential(
            (0): AvgPool2d(kernel_size=5, stride=2, padding=2)
            (1): ConvX(
              (conv): Conv2d(256, 256, kernel_size=(3, 3), stride=(1, 1), padding=(1, 1), groups=256, bias=False)
              (norm): BatchNorm2d(256, eps=1e-05, momentum=0.1, affine=True, track_running_stats=True)
              (act): Act()
            )
          )
          (branch_3): Sequential(
            (0): AvgPool2d(kernel_size=7, stride=3, padding=3)
            (1): ConvX(
              (conv): Conv2d(256, 256, kernel_size=(3, 3), stride=(1, 1), padding=(1, 1), groups=256, bias=False)
              (norm): BatchNorm2d(256, eps=1e-05, momentum=0.1, affine=True, track_running_stats=True)
              (act): Act()
            )
          )
          (act): Act(
            (act): GELU(approximate='none')
          )
        )
        (2): ConvX(
          (conv): Conv2d(256, 256, kernel_size=(1, 1), stride=(1, 1), bias=False)
          (norm): BatchNorm2d(256, eps=1e-05, momentum=0.1, affine=True, track_running_stats=True)
          (act): Act()
        )
      )
    )
  )
  (layer4): Sequential(
    (0): DownBlock(
      (mlp): Sequential(
        (0): ConvX(
          (conv): Conv2d(256, 1536, kernel_size=(1, 1), stride=(1, 1), bias=False)
          (norm): BatchNorm2d(1536, eps=1e-05, momentum=0.1, affine=True, track_running_stats=True)
          (act): Act(
            (act): GELU(approximate='none')
          )
        )
        (1): ConvX(
          (conv): Conv2d(1536, 1536, kernel_size=(3, 3), stride=(2, 2), padding=(1, 1), groups=1536, bias=False)
          (norm): BatchNorm2d(1536, eps=1e-05, momentum=0.1, affine=True, track_running_stats=True)
          (act): Act(
            (act): GELU(approximate='none')
          )
        )
        (2): ConvX(
          (conv): Conv2d(1536, 512, kernel_size=(1, 1), stride=(1, 1), bias=False)
          (norm): BatchNorm2d(512, eps=1e-05, momentum=0.1, affine=True, track_running_stats=True)
          (act): Act()
        )
      )
      (skip): Sequential(
        (0): ConvX(
          (conv): Conv2d(256, 256, kernel_size=(3, 3), stride=(2, 2), padding=(1, 1), groups=256, bias=False)
          (norm): BatchNorm2d(256, eps=1e-05, momentum=0.1, affine=True, track_running_stats=True)
          (act): Act()
        )
        (1): ConvX(
          (conv): Conv2d(256, 512, kernel_size=(1, 1), stride=(1, 1), bias=False)
          (norm): BatchNorm2d(512, eps=1e-05, momentum=0.1, affine=True, track_running_stats=True)
          (act): Act()
        )
      )
      (drop_path): DropPath(drop_prob=0.179)
    )
    (1): BottleNeck(
      (drop_path): DropPath(drop_prob=0.186)
      (ln): LayerNorm()
      (sblock_in): ConvX(
        (conv): Conv2d(512, 3072, kernel_size=(1, 1), stride=(1, 1), bias=False)
        (norm): BatchNorm2d(3072, eps=1e-05, momentum=0.1, affine=True, track_running_stats=True)
        (act): Act(
          (act): GELU(approximate='none')
        )
      )
      (sblock_dw): ConvX(
        (conv): Conv2d(1536, 1536, kernel_size=(3, 3), stride=(1, 1), padding=(1, 1), groups=1536, bias=False)
        (norm): BatchNorm2d(1536, eps=1e-05, momentum=0.1, affine=True, track_running_stats=True)
        (act): Act()
      )
      (sblock_proj): ConvX(
        (conv): Conv2d(1536, 512, kernel_size=(1, 1), stride=(1, 1), bias=False)
        (norm): BatchNorm2d(512, eps=1e-05, momentum=0.1, affine=True, track_running_stats=True)
        (act): Act()
      )
      (mblock): Sequential(
        (0): ConvX(
          (conv): Conv2d(512, 512, kernel_size=(1, 1), stride=(1, 1), bias=False)
          (norm): BatchNorm2d(512, eps=1e-05, momentum=0.1, affine=True, track_running_stats=True)
          (act): Act(
            (act): GELU(approximate='none')
          )
        )
        (1): PyramidConvX(
          (branch_1): Sequential(
            (0): AvgPool2d(kernel_size=3, stride=1, padding=1)
            (1): ConvX(
              (conv): Conv2d(512, 512, kernel_size=(3, 3), stride=(1, 1), padding=(1, 1), groups=512, bias=False)
              (norm): BatchNorm2d(512, eps=1e-05, momentum=0.1, affine=True, track_running_stats=True)
              (act): Act()
            )
          )
          (branch_2): Sequential(
            (0): AvgPool2d(kernel_size=5, stride=2, padding=2)
            (1): ConvX(
              (conv): Conv2d(512, 512, kernel_size=(3, 3), stride=(1, 1), padding=(1, 1), groups=512, bias=False)
              (norm): BatchNorm2d(512, eps=1e-05, momentum=0.1, affine=True, track_running_stats=True)
              (act): Act()
            )
          )
          (branch_3): Sequential(
            (0): AvgPool2d(kernel_size=7, stride=3, padding=3)
            (1): ConvX(
              (conv): Conv2d(512, 512, kernel_size=(3, 3), stride=(1, 1), padding=(1, 1), groups=512, bias=False)
              (norm): BatchNorm2d(512, eps=1e-05, momentum=0.1, affine=True, track_running_stats=True)
              (act): Act()
            )
          )
          (act): Act(
            (act): GELU(approximate='none')
          )
        )
        (2): ConvX(
          (conv): Conv2d(512, 512, kernel_size=(1, 1), stride=(1, 1), bias=False)
          (norm): BatchNorm2d(512, eps=1e-05, momentum=0.1, affine=True, track_running_stats=True)
          (act): Act()
        )
      )
    )
    (2): BottleNeck(
      (drop_path): DropPath(drop_prob=0.193)
      (ln): LayerNorm()
      (sblock_in): ConvX(
        (conv): Conv2d(512, 3072, kernel_size=(1, 1), stride=(1, 1), bias=False)
        (norm): BatchNorm2d(3072, eps=1e-05, momentum=0.1, affine=True, track_running_stats=True)
        (act): Act(
          (act): GELU(approximate='none')
        )
      )
      (sblock_dw): ConvX(
        (conv): Conv2d(1536, 1536, kernel_size=(3, 3), stride=(1, 1), padding=(1, 1), groups=1536, bias=False)
        (norm): BatchNorm2d(1536, eps=1e-05, momentum=0.1, affine=True, track_running_stats=True)
        (act): Act()
      )
      (sblock_proj): ConvX(
        (conv): Conv2d(1536, 512, kernel_size=(1, 1), stride=(1, 1), bias=False)
        (norm): BatchNorm2d(512, eps=1e-05, momentum=0.1, affine=True, track_running_stats=True)
        (act): Act()
      )
      (mblock): Sequential(
        (0): ConvX(
          (conv): Conv2d(512, 512, kernel_size=(1, 1), stride=(1, 1), bias=False)
          (norm): BatchNorm2d(512, eps=1e-05, momentum=0.1, affine=True, track_running_stats=True)
          (act): Act(
            (act): GELU(approximate='none')
          )
        )
        (1): PyramidConvX(
          (branch_1): Sequential(
            (0): AvgPool2d(kernel_size=3, stride=1, padding=1)
            (1): ConvX(
              (conv): Conv2d(512, 512, kernel_size=(3, 3), stride=(1, 1), padding=(1, 1), groups=512, bias=False)
              (norm): BatchNorm2d(512, eps=1e-05, momentum=0.1, affine=True, track_running_stats=True)
              (act): Act()
            )
          )
          (branch_2): Sequential(
            (0): AvgPool2d(kernel_size=5, stride=2, padding=2)
            (1): ConvX(
              (conv): Conv2d(512, 512, kernel_size=(3, 3), stride=(1, 1), padding=(1, 1), groups=512, bias=False)
              (norm): BatchNorm2d(512, eps=1e-05, momentum=0.1, affine=True, track_running_stats=True)
              (act): Act()
            )
          )
          (branch_3): Sequential(
            (0): AvgPool2d(kernel_size=7, stride=3, padding=3)
            (1): ConvX(
              (conv): Conv2d(512, 512, kernel_size=(3, 3), stride=(1, 1), padding=(1, 1), groups=512, bias=False)
              (norm): BatchNorm2d(512, eps=1e-05, momentum=0.1, affine=True, track_running_stats=True)
              (act): Act()
            )
          )
          (act): Act(
            (act): GELU(approximate='none')
          )
        )
        (2): ConvX(
          (conv): Conv2d(512, 512, kernel_size=(1, 1), stride=(1, 1), bias=False)
          (norm): BatchNorm2d(512, eps=1e-05, momentum=0.1, affine=True, track_running_stats=True)
          (act): Act()
        )
      )
    )
    (3): BottleNeck(
      (drop_path): DropPath(drop_prob=0.200)
      (ln): LayerNorm()
      (sblock_in): ConvX(
        (conv): Conv2d(512, 3072, kernel_size=(1, 1), stride=(1, 1), bias=False)
        (norm): BatchNorm2d(3072, eps=1e-05, momentum=0.1, affine=True, track_running_stats=True)
        (act): Act(
          (act): GELU(approximate='none')
        )
      )
      (sblock_dw): ConvX(
        (conv): Conv2d(1536, 1536, kernel_size=(3, 3), stride=(1, 1), padding=(1, 1), groups=1536, bias=False)
        (norm): BatchNorm2d(1536, eps=1e-05, momentum=0.1, affine=True, track_running_stats=True)
        (act): Act()
      )
      (sblock_proj): ConvX(
        (conv): Conv2d(1536, 512, kernel_size=(1, 1), stride=(1, 1), bias=False)
        (norm): BatchNorm2d(512, eps=1e-05, momentum=0.1, affine=True, track_running_stats=True)
        (act): Act()
      )
      (mblock): Sequential(
        (0): ConvX(
          (conv): Conv2d(512, 512, kernel_size=(1, 1), stride=(1, 1), bias=False)
          (norm): BatchNorm2d(512, eps=1e-05, momentum=0.1, affine=True, track_running_stats=True)
          (act): Act(
            (act): GELU(approximate='none')
          )
        )
        (1): PyramidConvX(
          (branch_1): Sequential(
            (0): AvgPool2d(kernel_size=3, stride=1, padding=1)
            (1): ConvX(
              (conv): Conv2d(512, 512, kernel_size=(3, 3), stride=(1, 1), padding=(1, 1), groups=512, bias=False)
              (norm): BatchNorm2d(512, eps=1e-05, momentum=0.1, affine=True, track_running_stats=True)
              (act): Act()
            )
          )
          (branch_2): Sequential(
            (0): AvgPool2d(kernel_size=5, stride=2, padding=2)
            (1): ConvX(
              (conv): Conv2d(512, 512, kernel_size=(3, 3), stride=(1, 1), padding=(1, 1), groups=512, bias=False)
              (norm): BatchNorm2d(512, eps=1e-05, momentum=0.1, affine=True, track_running_stats=True)
              (act): Act()
            )
          )
          (branch_3): Sequential(
            (0): AvgPool2d(kernel_size=7, stride=3, padding=3)
            (1): ConvX(
              (conv): Conv2d(512, 512, kernel_size=(3, 3), stride=(1, 1), padding=(1, 1), groups=512, bias=False)
              (norm): BatchNorm2d(512, eps=1e-05, momentum=0.1, affine=True, track_running_stats=True)
              (act): Act()
            )
          )
          (act): Act(
            (act): GELU(approximate='none')
          )
        )
        (2): ConvX(
          (conv): Conv2d(512, 512, kernel_size=(1, 1), stride=(1, 1), bias=False)
          (norm): BatchNorm2d(512, eps=1e-05, momentum=0.1, affine=True, track_running_stats=True)
          (act): Act()
        )
      )
    )
  )
  (head): ConvX(
    (conv): Conv2d(512, 1024, kernel_size=(1, 1), stride=(1, 1), bias=False)
    (norm): BatchNorm2d(1024, eps=1e-05, momentum=0.1, affine=True, track_running_stats=True)
    (act): Act(
      (act): GELU(approximate='none')
    )
  )
  (gap): AdaptiveAvgPool2d(output_size=1)
  (classifier): MlpHead(
    (fc1): Linear(in_features=1024, out_features=2048, bias=False)
    (norm): BatchNorm1d(2048, eps=1e-05, momentum=0.1, affine=True, track_running_stats=True)
    (act): Act(
      (act): GELU(approximate='none')
    )
    (drop): Dropout(p=0.2, inplace=False)
    (fc2): Linear(in_features=2048, out_features=1000, bias=False)
  )
)
number of params: 26934400
LR = 0.00400000
Batch size = 4096
Update frequent = 4
Number of training examples = 1281167
Number of training training per epoch = 312
Param groups = {
  "decay": {
    "weight_decay": 0.05,
    "params": [
      "first_conv.conv.weight",
      "layer1.0.mlp.0.conv.weight",
      "layer1.0.mlp.1.conv.weight",
      "layer1.0.mlp.2.conv.weight",
…
